Kochat2/chatbot/saved/EntityRecognizer/EntityRecognizer.pth (torch_old, 406645 bytes, 10 tensors)

lstm.weight_ih_l0 f4 [256, 128]
00000000: 6c01 9c3c 9277 efbd e118 bd3c 2853 4abe
00000010: a04f b93d 57b6 f6bd a2d5 36bd 8465 72bd
00000020: f6f2 c0bd 4bd9 bcbc 108e 31be 7fb2 35bd
00000030: fb68 513d 8d4c 853c 42cb afbc 4a15 803d
00000040: cc8b 083c 607b ae3d af83 c23c 3d98 30bb
00000050: f29b 023d 0110 303e cc90 0ebe 334f c6bd
00000060: e6c3 5cbd d812 39bd 87eb 36be a0e0 ad3d
00000070: 60cb 173e f158 8bbd e38c aebd 38d8 883d
00000080: 91db 87bc b2af f1bb 68d9 ce3d abd7 f9bc
00000090: 8e77 9ebd d686 523d 1002 b0bb 7c2d af3d
000000a0: 3685 c23c e0f1 e2bd b663 99bc 6499 893d
000000b0: 509c 85bd e964 873d 34bb 4cbb a2d2 94bd
000000c0: aeb7 94bd aa5a e3bb a89e 553d 1b23 c4bd
000000d0: 3bc7 90bd d03a 29be 5491 5cbe 7a8e 713d
000000e0: 6538 843d 82a2 a13c 6791 12be f9b5 ac3c
000000f0: 71c3 da3c a121 793d b49d 83bd 29b2 3f3d
00000100: 0846 e4bd 80f0 d0bd 9b0f 8e3c 4d51 aabd
00000110: affe 11be 7887 82bd 6510 473e a096 8f3c
00000120: ee84 f7bd a6f7 60bd 2d24 e03d c672 12be
00000130: 2aa6 b5bd 9215 82bd 18c3 e83c eef4 343e
00000140: 6945 40be 184e 263e 5ec4 14bd 6f28 a4bc
00000150: 876d 4ebe 4e34 b7bb 149e 15bd 76c7 c4bd
00000160: 828e de3d 4fb1 ca3b 03a0 05be aefb 633d
00000170: fb15 053d 8fe5 88bd 19fb 693d 8fe2 8f3d
00000180: 6292 fa3d c5e6 cc3b 594b 463d 3589 77bc
00000190: 8f29 f4bd ea00 3f3e 0ca8 e2bb e3c3 853d
000001a0: d0df b63d 0b0b 21be 80d3 a0bd cf1a af3d
000001b0: e0a1 fa3c 270b 12be 483a 85bc 8016 6abd
000001c0: a56c bbbc a609 e4bd 71e4 7e3d 7cb2 afbd
000001d0: 1e38 54bd 1abb 87bd 356e c9bc 9d88 c8bd
000001e0: f84b 733d 33db aebd 04a4 183e 2de1 073c
000001f0: 2179 143e ea90 0d3e 14fb d33d 09ba 323d
00000200: 21b8 283e 2f67 283e bd9a ac3d deac cc3d
00000210: e7ce 01be d13a 1cbe 5b45 5cbd 8b6c 363d
00000220: e256 93ba 6e12 fb3d 8d12 13bd ac54 cbbc
00000230: ff4f d83d 5980 b5bc ff1f 84bd dcdc 273e
00000240: 0e48 263e 8229 fc3c c7f8 abbc 70d0 373e
00000250: 0bee 66bd 9580 443e a7c8 a13d 3554 3f3c
00000260: bc1b 843c 5858 933d b563 39be 764d ba3d
00000270: edc5 21bb f073 71bd 1633 b0bd 0b3c 0fbe
00000280: 2ce3 3cbe 9404 97bd 5480 4d3d 80f5 613c
00000290: 5c80 183d 5c03 903d 06a6 eebd 499a a1bd
000002a0: 72c9 c83d cc3f 123d 4570 ebbc c40c b7bd
000002b0: 944e 8839 4416 c4bd 0c0d 8dbc f029 6ebd
000002c0: 214b 99bd 0bf3 f73d 618f 1b3e 1c43 8c3c
000002d0: bd17 8abc e9e1 523d 3f5f 59be b712 86bd
000002e0: b588 32bd 0695 693d 7393 05be e503 7c3d
000002f0: 64c1 233d 254e 8bbd 3d2d 22bd 2405 913d
00000300: 5137 5fbd 4d23 81be e2ae b1bc 296a abbd
00000310: d9d8 b7bd e174 973c ed8a 92bd 4201 8abd
00000320: 3527 5b3e 274a 2a3d 90c9 edbc c207 903c
00000330: 4ede e63d 543f 69be 95ee 1a3e 7b2b 0bbd
00000340: 22c9 8abd b535 23be 0cb3 9e3d 62ea 783e
00000350: 030d 6c3e fc71 963c a97c 88bd 4e21 28be
00000360: 2c7e f43d 4b86 133e 27f0 0ebe 7b75 aebc
00000370: d42b 723d ec33 20be b77c 9b3d be90 53bd
00000380: d953 2b3e 2e11 543c 2ecd c33d 0fd4 b4bd
00000390: 68d5 13bd 7a11 403d a474 233b c6c0 d1bd
000003a0: c796 b63d e0c5 68bc 9c9f 02be e07e f1bd
000003b0: 8c7d 02be 56b4 dbba 6d97 ffbd f66f 3abe
000003c0: 8a33 4c3d f20c e13c 72b7 de3d a2e0 243e
000003d0: 2297 9cbb 2660 823d 6c4a 023c e581 f1bd
000003e0: 6191 603b 9b3d b9bd 7fa5 e0bd bd01 913d
000003f0: c160 a73c 40c2 873c 2755 f0bc 97c2 f5bd
0.019043647 -0.11692728 0.023083152 -0.19758284 0.090483904 -0.12046497 -0.04463733 -0.059178844
-0.09421341 -0.023052832 -0.17339349 -0.04435968 0.051125508 0.016271854 -0.021459226 0.062540606
0.008334111 0.08519626 0.023744432 -0.002694621 0.031887002 0.17193605 -0.13922423 -0.09683075
-0.05389776 -0.045183986 -0.17863284 0.084901094 0.14823675 -0.068040736 -0.08522966 0.066818655
-0.01658419 -0.007375681 0.10100061 -0.030498346 -0.07737647 0.05139812 -0.0053713396 0.08553597
0.02374516 -0.1108129 -0.018724304 0.0671871 -0.06523955 0.06611044 -0.0031239511 -0.072667375
-0.072615966 -0.0069382982 0.05215326 -0.09577008 -0.0706925 -0.16526341 -0.21539813 0.058973767
0.06456069 0.01973081 -0.14313279 0.021082865 0.026704522 0.060823087 -0.06426564 0.046800766
-0.1114617 -0.10202122 0.017341426 -0.08316288 -0.1425731 -0.06373495 0.19439848 0.017527878
-0.12085901 -0.054923676 0.109444 -0.14301595 -0.08869584 -0.063517705 0.02841334 0.17671558
-0.18776478 0.16240728 -0.036320083 -0.020038811 -0.20158969 -0.005590952 -0.03652771 -0.09608357
0.10867025 0.0061856876 -0.13049321 0.055659942 0.032491665 -0.0668441 0.05712423 0.070256345
0.122349516 0.006253096 0.0484117 -0.015108396 -0.11921989 0.18652692 -0.0069170054 0.06531503
0.089294076 -0.15726869 -0.078528404 0.08550035 0.030594766 -0.14262067 -0.016263142 -0.057150364
-0.022878954 -0.11134653 0.062229577 -0.08578965 -0.05181133 -0.06627484 -0.024588684 -0.09791682
0.05939862 -0.08537903 0.14906317 0.008293432 0.14499332 0.13824812 0.10350624 0.04363445
0.1647649 0.16445611 0.084279515 0.09993909 -0.12676583 -0.15256812 -0.05377708 0.04453711
-0.0011241103 0.122593746 -0.035906363 -0.024820648 0.10562133 -0.022155927 -0.06451415 0.16392845
0.16238424 0.030781511 -0.02099265 0.17950606 -0.05637936 0.19189675 0.078995995 0.011677791
0.016126506 0.071945846 -0.18104441 0.09096806 -0.0024684623 -0.058948457 -0.08603494 -0.13987748
-0.18446034 -0.0737392 0.05017121 0.013791442 0.037231788 0.07031891 -0.1165276 -0.07890756
0.09804048 0.035705373 -0.028740058 -0.08937982 0.00025998487 -0.09574559 -0.017218135 -0.058145463
-0.07485033 0.12106904 0.15191413 0.017121844 -0.016857022 0.051484976 -0.2122774 -0.06546538
-0.043587405 0.057026885 -0.13044529 0.06152715 0.039979354 -0.06802014 -0.039593924 0.070810586
-0.054496113 -0.25222245 -0.021689836 -0.08369858 -0.08976907 0.01848835 -0.07155404 -0.06738521
0.21401675 0.041574623 -0.029026777 0.017581824 0.1127287 -0.22778064 0.15130074 -0.033977013
-0.06776644 -0.15938456 0.07748994 0.2430816 0.23051839 0.018364899 -0.06664402 -0.16418955
0.11938128 0.14406697 -0.13958798 -0.021296253 0.05912383 -0.15644807 0.07592147 -0.05165171
0.16731204 0.012943549 0.09560619 -0.088295095 -0.036092192 0.046891667 0.002494135 -0.10241847
0.08915477 -0.014207333 -0.12756199 -0.117917776 -0.12743205 -0.0016762118 -0.12480054 -0.18206772
0.04985384 0.027471993 0.10874833 0.16101316 -0.0047787586 0.06365995 0.007952314 -0.117923535
0.003426634 -0.090449534 -0.10969066 0.0708041 0.020431878 0.016572118 -0.029337479 -0.12000006

lstm.weight_hh_l0 f4 [256, 64]
00000000: 175e 8c3d d9b5 3bbe 92e0 73bc e8eb ee3c
00000010: 9fae 30be e9ca 5a3d 6532 16be 4462 8dbc
00000020: 9b1e 9b3c 0f75 863e c964 d23c cd99 cf3d
00000030: e638 b2bd 7217 e53d 1b4f e13d 0241 233e
00000040: 1867 343e 6c60 d63a e438 55bd fb76 6ebd
00000050: fb47 39be 2d81 1dbd 7a6e 153e 6377 533d
00000060: 7d04 4fbe 405f b93d 9888 d43d 7306 dabd
00000070: 81b1 54bd 25c7 5e3d d4ca 46bd 0f98 373c
00000080: 16c8 98bd ecbd 123d 751a 153e fae3 a33d
00000090: 54bc 9e3d f0a2 3f3e 4f18 09be f686 13be
000000a0: f0a6 34be e666 cd3d 1856 37bc 5078 273e
000000b0: 1dc0 183e 9aaa 433d 09d2 523d 963f 733e
000000c0: 05a5 82bd 8ba6 2bbe abb3 2b3d a0c5 2bbd
000000d0: 6b91 863d 8ad2 b73d dc40 02bc 16bb 71bd
000000e0: 84a6 debb 9d5e 063e b9f0 563d 1fdb ab3d
000000f0: 3f22 133e d488 33bd a51e cebd 218d 45bd
00000100: 96ca e53d b846 f4bd 190e 443e b42c 453e
00000110: eedb 44be 53e8 793d 5de6 dabd 700c 0a3e
00000120: 8b44 9b3e 5aa7 df3d d5a8 eabd b462 1ebd
00000130: 00c6 753d 88d8 0dbe f090 2abe 721e 913e
00000140: d44d 1dbe 6b14 78be 16a6 7a3d ce34 c83d
00000150: 26d5 0d3e a91d 54be a325 84bd 1a0c 243b
00000160: 79df ccbd c3fd b93c 39a3 91bd c483 76bd
00000170: 6d8c 48be 9638 67bd fe59 91be decc 953e
00000180: f4fa 84be cdc6 7f3e 0d3d 263e bc0a 02be
00000190: 9b0c 84bd 2b85 89bc ad24 3c3d 7be1 173e
000001a0: 9f1b 063d f2c0 48bd 3391 b6bd c132 17be
000001b0: 9934 1fbe 3284 02bd d205 b43d 2258 133e
000001c0: 315b 1bbe f940 783c 1d22 023d de5a 313e
000001d0: a382 14be f1ea 6c3d 128e 463e cb94 443e
000001e0: 2dc3 1f3e 4f68 77bd 7ea3 173e 5bec 32be
000001f0: b106 043e 6585 a3be 23b9 40be 0560 45bd
00000200: dabd ef3d 3d7b 86bd a631 153d 8f79 e63d
00000210: 2101 16be 5eb3 473b cd76 0bbe 1dee e038
00000220: ad8d df3c c051 853e 9ee9 93bc 0b1d 663e
00000230: f313 b6bd c657 5d3d 1c4b 933d 2af9 7d3e
00000240: 1e52 003e 0188 18be 069e 75bd 39a3 88bd
00000250: 10b6 aabd 1407 35bd bbdf 813d 5e89 d13d
00000260: 9357 b4bd 13cb 703d 6913 dfbd 7639 5dbd
00000270: 84b5 babd c082 99bd 3cae 1abe da02 e33d
00000280: 0174 f0bd a73b 403e eec3 4c3e c138 53bd
00000290: 29c3 afbb e7b5 8f3d 970a 053c d4a7 d5bc
000002a0: 4f4b 24bd 7f6d 633e b2f0 31bd b313 e63d
000002b0: f23b 143e 98fb c43c e4dd ba3d 0729 323e
000002c0: ec8a ccbd 73d3 23be 9a00 683d 1cd1 163e
000002d0: 14d2 eb3d 0186 053e 6b93 093e e4d4 c2bc
000002e0: 7c5d 023c 7f8c 4c3d 7736 d93b 983c a6bd
000002f0: 191f e13d 26a9 57bd d51c c6bd e06c 30bd
00000300: 55fa bf3d 0a40 d3bd 05a0 9abd 8639 67bd
00000310: 7a20 493b de19 c5bd b4e0 f0bd c663 3c3d
00000320: d3d4 dd3d ae14 883d bf80 1abd 5463 823e
00000330: 6f99 e5bd ac7d 363e 9635 6c3c 3999 233e
00000340: 4e4c 323e 6ea4 373c 2792 4abc 18f3 f9bd
00000350: cbb7 a6bd 6115 95bd 1aa7 143e 78bb bc3d
00000360: 77e0 10be 484a ee3b 3388 8d3c 8fdd 6bbd
00000370: 6208 f6bd 4dc8 3c3d 24ad b7bc c2dd ffbb
00000380: 1534 4a3c f25c 68bc 1bd8 903d 2ab1 e43b
00000390: d0e1 833d 05d7 6d3d 8341 72bd 80d3 abbd
000003a0: 65b0 9ebd d3fb 673d ed6a 9b3b eebd dc3d
000003b0: d1a7 073e 704e 853d 5e51 d43d 8bd8 ac3d
000003c0: ce86 01bd 12b3 97bd 2eb9 08bc 6ab1 6cbc
000003d0: 71fc fb3d 98ed d23d cd5b a7bb 47fd dfbc
000003e0: 0fc6 36bd 6f97 fb3c d17f 2ebd 62de 993d
000003f0: 9da8 bbbc 2d92 4ebb c586 3bbd 8e4f ca3c
0.06853884 -0.18331088 -0.014885085 0.029165223 -0.17254113 0.053416166 -0.14667661 -0.01725877
0.018935492 0.26261184 0.025682824 0.10136757 -0.08702259 0.111861125 0.11001416 0.15942767
0.17617452 0.001635564 -0.05205621 -0.058218937 -0.18093865 -0.03845327 0.14592925 0.051627528
-0.20216556 0.090513706 0.10377616 -0.10645761 -0.051927093 0.054389138 -0.048533276 0.011205687
-0.07460038 0.035825655 0.14560874 0.080024675 0.077507645 0.187145 -0.13388179 -0.14406952
-0.17641807 0.10029392 -0.01118996 0.1635449 0.14917035 0.04777012 0.051469836 0.23754725
-0.06379131 -0.1676275 0.04191939 -0.041936517 0.06570705 0.08975704 -0.007950034 -0.05901631
-0.0067947526 0.1312203 0.052475665 0.083914034 0.14368533 -0.04383166 -0.10064439 -0.048230294
0.11220281 -0.11927551 0.19146003 0.19255334 -0.19224522 0.061012577 -0.106884696 0.13481307
0.30325732 0.10920592 -0.114579834 -0.03866835 0.06000328 -0.13852131 -0.16656852 0.2834354
-0.1536172 -0.24226539 0.06119355 0.09775697 0.13850841 -0.2071444 -0.06452491 0.0025031627
-0.100035615 0.02270401 -0.071112104 -0.060184255 -0.19584818 -0.05645045 -0.2838897 0.29257864
-0.25972712 0.2497818 0.16234227 -0.12699407 -0.06447717 -0.016787132 0.045933414 0.14832108
0.032741185 -0.049012132 -0.08914413 -0.14765455 -0.15547408 -0.031864353 0.08790173 0.14389089
-0.15171506 0.015152209 0.031770814 0.1731982 -0.14502959 0.057841245 0.19390133 0.19197385
0.15601797 -0.06040221 0.14808461 -0.17472975 0.12893178 -0.3193771 -0.18820624 -0.048187274
0.11706133 -0.065664746 0.0364243 0.11253654 -0.14648868 0.0030471901 -0.13619538 0.000107255044
0.027289236 0.26038933 -0.018055733 0.22472017 -0.08890524 0.054038785 0.0719206 0.2480208
0.12531325 -0.14895631 -0.059965156 -0.06671757 -0.08335507 -0.044196203 0.06341501 0.10231279
-0.08805766 0.058787417 -0.10892374 -0.054009877 -0.091166526 -0.07495642 -0.15105528 0.11084528
-0.11740876 0.18772756 0.19996616 -0.051567797 -0.005363841 0.07017117 0.008120201 -0.026081003
-0.040110882 0.22209738 -0.043442436 0.11234226 0.14475992 0.02404575 0.091243535 0.17398463
-0.09987435 -0.1599863 0.0566412 0.14728206 0.115146786 0.130394 0.13435142 -0.023783155
0.007956859 0.049938675 0.006628807 -0.08117026 0.109922595 -0.052651547 -0.09673468 -0.04307258
0.09373919 -0.10314949 -0.075500526 -0.056451343 0.0030689524 -0.096240744 -0.11761609 0.04599359
0.108316086 0.06644569 -0.037720438 0.25466406 -0.11210906 0.17821378 0.014417073 0.15976419
0.1741192 0.011208637 -0.012363947 -0.122045696 -0.081405245 -0.07279468 0.14516869 0.09215444
-0.14148127 0.0072720386 0.017276859 -0.05758434 -0.12013318 0.04608946 -0.022421427 -0.007808418
0.012341519 -0.014182316 0.07072469 0.0069791274 0.06439555 0.058066387 -0.059144508 -0.0838995
-0.07748488 0.056636643 0.004742971 0.10778414 0.1324761 0.065091014 0.10367082 0.0843974
-0.0316227 -0.07407202 -0.0083449315 -0.014446596 0.12304009 0.10299224 -0.005107379 -0.027342452
-0.044622477 0.030711858 -0.042602364 0.07513119 -0.02290755 -0.0031520233 -0.045782823 0.024696138

lstm.bias_ih_l0 f4 [256]
00000000: 169c 3a3e 1887 8d3e 6fae ac3e 56a7 4d3e
00000010: 2e06 4f3e 09f3 893e f793 4e3e f0d9 3d3e
00000020: ae41 403e d952 5f3e eaff af3d 4bf4 823e
00000030: 46dd 373e 5431 413e b2f6 a53e a31e a83e
00000040: 2ebf 893e f2ba e73d 1809 6d3e 5615 213e
00000050: d8a3 4d3e 62ee 973e b973 f23d 279a 323e
00000060: 4fb3 583e 1b24 af3e 6916 953e 1b99 833e
00000070: 133b 843e 336c 463e f7fa 943e 7d47 093e
00000080: 35b4 823e d639 ae3d 9e68 943e 4f4f b43e
00000090: 629c a43e 0ce6 da3d 7889 b63e 2369 903e
000000a0: a693 df3d 4e8d 333e 9038 5a3e 321c 7c3e
000000b0: eee2 3c3e b1e6 7b3e 5d7d 0e3e b416 8a3e
000000c0: 6df4 153e 1112 953e 7408 243e 1f00 ae3e
000000d0: 3b96 3e3e 834a cc3e 2d47 943e 3cab 573e
000000e0: 7eb8 313e 7a8f 453e 2be5 543e 3293 b53e
000000f0: 400a 843e 3e3e 653e 13a9 b33e 1f60 093e
00000100: cf3b d73b e826 37be d72f abbe fd34 03be
00000110: f4c0 40be dc75 32be 0a09 4ebd 5746 85be
00000120: 557b b2bd d504 d1bd eee4 26be ba1c 4bbc
00000130: 9b42 c1bd 94ff 80be 2fa0 30be 448e 113d
00000140: b25f 2fbc fe41 7fbe 22f6 29be 2d34 1ebe
00000150: eb4e 16be f7b3 79bd 0a7d 51be 6806 d2bd
00000160: 13eb 17be 038b c2bd b886 82be e236 84be
00000170: cc3a 28be 3ab8 95be 032a e9bd 3bb9 98be
00000180: 1243 31be 3425 11be 9bf6 8dbe 85de 83bd
00000190: a4e5 81be dcad 1cbe c11d 2bbe 9f7d 27be
000001a0: c3b3 6abe 5c20 2fbe f985 6bbe aebc d13d
000001b0: 2f14 aebc 0df9 a0bd 6308 ddbd 91fb 333d
000001c0: 1ee6 f2bd 5a2a f8bd e29c 1ebe 8059 93be
000001d0: 9bd3 73bd 6d52 7bbd 3110 17be 8343 9cbd
000001e0: 1409 b5bd ce2b 893d 1d39 48bd 42b9 5fbe
000001f0: c859 16bc 136d 24be 9176 a5bd f9a6 2c3d
00000200: 7078 5b3e 81a4 e8bd 10e2 b4bc 2557 d03d
00000210: 2c1b 27be 4626 b0bc 0fb8 cebd d774 3ebe
00000220: 3fd1 253e 191f 1c3e d113 743e 8bd9 593e
00000230: 9a9b fe3d 0c7f d93c 55c5 913e ff73 a03d
00000240: 47ec bb3d 9ff5 88bd 3cb1 7b3c 3d08 c2bd
00000250: b232 0cbd b962 4c3b 6c3c 583e 33f6 a83c
00000260: c155 61be f8bf 4a3e 33a1 9f3d bd9f e9bd
00000270: 1c41 e7bd 70d5 db3d 7378 30be 9ae4 533e
00000280: 930f 1bbe f323 ec3c f486 843d b84b 283d
00000290: d9d2 aa3d 713e 163d b9d9 9fbd a8cd 1d3e
000002a0: 0824 4ebe ca08 033e 391e b6bd 597e 773d
000002b0: aa38 2fbc c6af 593e 8a76 ebbc 7bbb 193e
000002c0: d45d d1bd 5049 7cbe 35d7 323e 29f9 1b3e
000002d0: 568b 5d3a d44d 453c 53e0 8f3d e14a 45be
000002e0: 3d6d 493e 9804 c33d a8b5 513e 655b b0bb
000002f0: 1bce 5a3c 7e45 0fbd 73a1 babd 3738 b1bd
00000300: bda1 643e e8a9 2e3e 5277 823e ac62 783e
00000310: 588e 983d bb9e a73e 57cc 803e bfec 503e
00000320: b656 c43d 0748 753e 789b 5d3e 849d 593e
00000330: 7476 9e3e f50d 783e 4165 a63e 6349 7d3e
00000340: 0fba b93e f79a b03e 1f70 213e eda5 963e
00000350: 6bad 2a3e 4479 773e 9be0 443e 6239 523e
00000360: 4145 1c3e 84b6 b63e 9ecf 993e 1bf3 a33e
00000370: e076 3a3e 9cdf 3f3e 1854 983e b6cc 653e
00000380: bde8 9f3e 3333 ad3e f711 093e 97f9 353d
00000390: 98b1 1a3e 74f5 d43d f5c3 9a3e 4427 a33e
000003a0: f253 333e 99f9 743e 2ced f03d d8c1 713e
000003b0: 1fd5 833e 1d7c 263e a108 a73e 80d0 873e
000003c0: 31d8 653e e1e5 b53e e6cf c73d 6632 4e3e
000003d0: 7c4a 5f3e add1 373e 5c80 093e 7dd8 893e
000003e0: ece3 9a3e a61d 7f3e a8d5 2a3e aa89 853e
000003f0: b040 f73d 4fc4 1d3e 1bd4 5e3e 808a 303e
0.18223605 0.2764213 0.33726832 0.20083365 0.20217201 0.26943234 0.20173632 0.18540168
0.18775055 0.21808948 0.085937336 0.25577006 0.17955503 0.18866473 0.32414776 0.32835874
0.2690367 0.11314954 0.23148 0.15730795 0.20082033 0.2967406 0.118384786 0.17441617
0.21162151 0.34207234 0.2911866 0.25702748 0.2582632 0.19377212 0.2909772 0.13406177
0.25528112 0.08507125 0.28986067 0.35216758 0.3215056 0.10688409 0.35651755 0.28205213
0.109168336 0.17534372 0.2131064 0.2462013 0.18445942 0.2459972 0.1391501 0.26970446
0.14644022 0.29115346 0.1601885 0.33984467 0.18611996 0.39900598 0.28960553 0.21061414
0.17355534 0.19293013 0.20790546 0.35463864 0.2578907 0.22387025 0.3508993 0.13415574
0.006568409 -0.17885935 -0.33434936 -0.12813182 -0.18823606 -0.17427772 -0.05030159 -0.26030228
-0.0871493 -0.10206 -0.16298267 -0.012396986 -0.09436532 -0.2519499 -0.17248605 0.035536066
-0.010703968 -0.24927518 -0.16597798 -0.15449591 -0.14678542 -0.060962643 -0.20457855 -0.10255128
-0.14835767 -0.09499171 -0.25493407 -0.25823122 -0.16428679 -0.29242116 -0.11384966 -0.2982882
-0.17310742 -0.14174348 -0.27727208 -0.064389266 -0.25370514 -0.15300697 -0.16710569 -0.16356514
-0.22920136 -0.17102188 -0.23000325 0.10241066 -0.021249859 -0.07860003 -0.10792615 0.043941084
-0.118602976 -0.12117453 -0.15489534 -0.2877922 -0.059527975 -0.061357904 -0.1475227 -0.07630064
-0.08839622 0.06697808 -0.048882592 -0.21848014 -0.009176679 -0.16057234 -0.08079255 0.042151425
0.21432662 -0.11359502 -0.022080451 0.101728715 -0.16318959 -0.021502625 -0.100937 -0.18599258
0.16193102 0.15246238 0.23835684 0.21274392 0.124320224 0.026549838 0.28470865 0.078346245
0.09175926 -0.066874735 0.01536208 -0.094742276 -0.034228034 0.0031186773 0.21116799 0.02062521
-0.22005369 0.19799793 0.07794418 -0.11407421 -0.112917155 0.10734069 -0.17233448 0.20692673
-0.1514266 0.028825736 0.06471053 0.041087836 0.08340997 0.036680643 -0.07805199 0.15410483
-0.20130932 0.12796322 -0.08892483 0.06042323 -0.010694662 0.21258458 -0.028743047 0.15012924
-0.102229744 -0.24637341 0.17464907 0.15231766 0.00084512436 0.012042481 0.07025208 -0.19266845
0.19670577 0.095223606 0.20479453 -0.005381989 0.013354803 -0.034978382 -0.09112825 -0.086533
0.22327323 0.17057002 0.2548166 0.2425639 0.07449025 0.3273829 0.251559 0.20402811
0.09586851 0.23953258 0.21641338 0.21251494 0.30949748 0.24224074 0.32499126 0.24735026
0.36274764 0.3449323 0.15765427 0.29423466 0.16667716 0.24167353 0.19226305 0.20529702
0.15260793 0.35686123 0.30041212 0.32021412 0.1820941 0.18737644 0.29751658 0.22441372
0.31232253 0.33828124 0.1338576 0.04442748 0.15106809 0.10398379 0.30227628 0.31865895
0.17512491 0.23923339 0.11763987 0.23609102 0.25748536 0.16258283 0.3262377 0.2652626
0.22445752 0.35526946 0.0975645 0.20136413 0.21805757 0.17951079 0.13427871 0.2692298
0.30252016 0.24913654 0.16683066 0.26081592 0.12072885 0.15406917 0.217606 0.17240334

lstm.bias_hh_l0 f4 [256]
00000000: 0d9c c23d 06ff 573e e99c 723e acf4 133e
00000010: 4b32 453e 8627 473e ce33 6a3e 8342 5d3e
00000020: 75e3 8a3e 3e49 b03e 7da4 723e dadc 583e
00000030: c69d 963e a4bd 9d3e 27b3 1a3e 80e3 a53e
00000040: 9bb7 873e 8277 8a3e 9a92 453e e5f8 633e
00000050: 377d 233e 2cc9 123e 6eee 183e 09f7 903e
00000060: a2bc 0f3e 465b 533e e52e 9f3e be9a 393e
00000070: 50b9 963e a237 953e 72c0 2e3e 55ed 673e
00000080: cb2a 803e 8ecd e83d 5595 863e f952 953e
00000090: 265d b73e 9d0a 333e f348 db3e a25d 723e
000000a0: 7cc9 803e b98b 203e b447 213e 1806 b93e
000000b0: 3595 643e 49d1 333e 3cac 833e 70d4 233e
000000c0: b4bb 8a3e 2219 713e a1f6 7b3d 0127 1f3e
000000d0: 69ad 683e a9f9 8c3e 00b4 403e eea7 583e
000000e0: e3bd 803e 55b3 323e b57b 873e a204 a03e
000000f0: 8393 703e 2928 953e 539b bb3e b7c8 783e
00000100: dd73 9bbd 2a53 67be da1c a3be e9b9 50be
00000110: 3486 3dbe 8def 97be a24a 46bd 382d 12be
00000120: bdc7 20bd 81b5 fbbd dba9 64be 278c a3bd
00000130: f5ba 5abe 0b63 88bd 02e6 f5bd 78dd 663d
00000140: 27bb 99bd 18b0 21be 6b21 60be 125d 99bd
00000150: 2cc6 3ebe 7285 61be 7a87 80bd d08e febc
00000160: 1375 54be c9e1 2dbe a069 39be 8164 75be
00000170: 1511 52be 62a0 ddbd 82b9 07be 5d68 1dbe
00000180: 3c26 81be 9a55 54be e859 e1bd a2b2 2c3c
00000190: bb03 54be adcc ddbd c8d5 eebd 757b 53be
000001a0: 4083 a8be 0e39 58bd 514b 56be bc36 45bd
000001b0: ca85 d63c cbac 22be d363 1abe f170 a23d
000001c0: d2b3 30be dbcb 7cbe 5f0f 00be 2398 9bbe
000001d0: 7bf5 5cbe df42 abbd d283 38be b16b 43be
000001e0: 759e 0abe e03e 97bd 3f5c 32be d4c1 e0bd
000001f0: 2e34 b7bd b1fb f2bd 4d11 1cbe f75b cebd
00000200: 9afb 243e e546 b7bd 37a2 03bd cdd2 c03d
00000210: d9cd 16be bc79 9bbc c1a5 31be eeab 1cbe
00000220: 8c57 3f3e 8a88 a13e 29fe 073d 6472 563d
00000230: 957a 333e 9c9a 6c3d 9267 4e3e d345 223e
00000240: 29f5 fd3d 068b 8bbc daa7 4bbd b90c 1a3d
00000250: d5ae dabd 5c66 dc3c 96d8 553e 0975 143c
00000260: bc1a b73b 2b02 f03d a95b 88bd 3d61 18be
00000270: e0f4 e0bc 5ea1 fc3c 665e fbbd 1729 f73d
00000280: e49d e8bd 7c02 6c3d 2d0f b33d 752c 2e3e
00000290: ac96 9a3d fe51 aabc 29bf e03b 9eeb 1e3e
000002a0: 8102 30be 4145 f13c 39c2 3cbe 2260 8c3c
000002b0: 7bdc 903d d2b4 7d3e 8bd5 9dbd 8a4c 833e
000002c0: f26a 2cbd 5032 2abe 265a 303e 10ac 6c3e
000002d0: 5cff e03d 1231 543d 6d49 9f3d 97cd 44be
000002e0: 19b1 8b3d 690e 213d 048d 383e 0de6 05bc
000002f0: a371 173e f35a 23be 8d76 12be 6c24 5dbe
00000300: 0b13 2d3e f7dd 4b3e a467 083e e348 a43e
00000310: 4321 dd3d 0a01 c13e 222e 823e 4964 2e3e
00000320: 0719 da3d 523c c03e f875 863e 2598 373e
00000330: 1338 343e b792 7f3e 4d36 d33d 1402 823e
00000340: 7b04 823e d5f4 933e 5ec0 923e bfe4 853d
00000350: 96c5 663e eaf6 513e b51a 453e f440 9f3e
00000360: 4067 f93d 5ad1 8f3e f688 683e 53d0 f23d
00000370: 4252 1d3e 073a 873e 9793 8a3e bcc4 f93d
00000380: 19a8 393e 7239 423e 305c 933e 970e 783e
00000390: 0393 873e 5afd 343e 0267 953e b21c 903e
000003a0: b2fd df3d 9df2 8d3e 46cf 1f3e 7e3a 8d3e
000003b0: ecfb 783d 49b0 753e 26a0 863e aae1 af3e
000003c0: d7c9 8c3e e3da 993e 80a4 1a3e 147d 883e
000003d0: e947 653e fc9d ac3e 7ed4 643e f3ee e93d
000003e0: 4561 1f3e ec63 8b3e 9eb6 853e 230a 533e
000003f0: 43d2 8f3e 7f76 393e 1df9 2b3e 74b9 343e
0.095024206 0.21093377 0.23692669 0.14448804 0.19257466 0.1944867 0.22871324 0.21607403
0.2712666 0.3443088 0.2369556 0.21177998 0.29417247 0.30808747 0.15107404 0.3240013
0.26507267 0.27044302 0.19294205 0.22262914 0.15965734 0.14334553 0.14934704 0.28313473
0.14036801 0.20640287 0.31090465 0.18125436 0.29438257 0.29144007 0.170656 0.22649129
0.25032648 0.113673314 0.26285806 0.29164866 0.35813254 0.17484517 0.42829093 0.2366853
0.2515372 0.156783 0.15750009 0.36137462 0.22322543 0.17560305 0.25717342 0.15999007
0.2709633 0.23544744 0.0615145 0.15542223 0.227224 0.27534226 0.18818665 0.2115781
0.25144872 0.17451222 0.26461568 0.31253535 0.23493771 0.29132202 0.3664194 0.24295317
-0.075904585 -0.22590318 -0.3185795 -0.20383419 -0.18508226 -0.2967495 -0.04841102 -0.14275062
-0.039252985 -0.122904785 -0.2233042 -0.07985716 -0.21360381 -0.06659516 -0.12006761 0.056363553
-0.075063996 -0.1578983 -0.21887748 -0.07488455 -0.18630284 -0.22023562 -0.0627584 -0.031073958
-0.20747785 -0.16980661 -0.18106699 -0.2396412 -0.20514329 -0.10821606 -0.1325436 -0.15371843
-0.25224483 -0.2073578 -0.110034764 0.010540636 -0.20704548 -0.108300544 -0.11661869 -0.20652564
-0.32912636 -0.052788787 -0.20927168 -0.048147902 0.026186842 -0.15886228 -0.15077142 0.07931698
-0.17256096 -0.2468714 -0.12505864 -0.3038951 -0.21578018 -0.08362364 -0.18019035 -0.1908405
-0.13537009 -0.07385039 -0.17418002 -0.1097447 -0.08945499 -0.118644126 -0.15240975 -0.10076135
0.16111603 -0.08949069 -0.032137122 0.09415207 -0.14726962 -0.018978946 -0.17348386 -0.15299961
0.1868574 0.31549484 0.03320137 0.052355185 0.1752723 0.057764634 0.20156696 0.15846948
0.12400276 -0.017034065 -0.049720623 0.03760979 -0.10677878 0.026904278 0.20883402 0.0090611065
0.005587904 0.117191635 -0.06658108 -0.14880843 -0.027460515 0.030838665 -0.122738644 0.12068384
-0.1135824 0.057619557 0.08743129 0.17009147 0.0754827 -0.02079105 0.0068587256 0.15519568
-0.17188455 0.029451968 -0.18433465 0.017135683 0.07073303 0.24776009 -0.07706746 0.25644332
-0.04209418 -0.16620755 0.17221889 0.23112512 0.10986206 0.05180461 0.07777677 -0.19219051
0.06820888 0.039320383 0.18022543 -0.008172524 0.14789443 -0.15952663 -0.14303036 -0.21595925
0.16901796 0.19908892 0.13320786 0.32086858 0.1079736 0.37696105 0.25425822 0.17030443
0.10649305 0.3754602 0.26261878 0.17929132 0.17599516 0.24958311 0.103130914 0.2539221
0.25394043 0.2889773 0.2866239 0.065377705 0.2253631 0.20504346 0.19248469 0.31104243
0.121778965 0.2808941 0.22708496 0.11856141 0.1536341 0.2641146 0.27065727 0.12195727
0.1813053 0.18967226 0.2878127 0.24224316 0.2647935 0.17674771 0.2918015 0.28146893
0.109370604 0.27724162 0.15606412 0.27583688 0.060787126 0.23993029 0.2629406 0.34351856
0.27497742 0.3004981 0.15101814 0.26657927 0.22390713 0.33714283 0.22346684 0.11422529
0.15564449 0.27224672 0.26115888 0.20609336 0.28090104 0.18111609 0.16794248 0.1764887

lstm.weight_ih_l0_reverse f4 [256, 128]
00000000: 1aaa 8b3d 3e5c 48be b6d2 aa3d 5bf6 aa3d
00000010: 8970 db3c 9ea3 53ba c84f 333d 1b0b f1bd
00000020: 556c 0e3d 746f e8bc 2966 f6bc dd5e f63d
00000030: 40ef f93d b137 c43d 783f 9e3b 40c9 a93d
00000040: 0e80 7a3c 595b 133c d80f 84bd 651b c83d
00000050: a9d2 483c 2b0a 803d e9dd 653d 4951 a63c
00000060: 19d1 a7bd aa4b d4bd b693 6bbd 4d73 a63c
00000070: d408 8ebd bfa7 e5bd 8709 e3bc 3669 46bd
00000080: e8c2 b1bc 76b7 a9bd f0a2 d23a ad3e f63c
00000090: cfd3 7e3d e809 753c 1080 31bc 7f20 e9bc
000000a0: d1cd 3fbc f896 0bbe bae4 00be c454 0f3e
000000b0: ad14 e2bd 34d7 eebd 9156 95bd 9d50 5f3d
000000c0: 81f4 ef3d e999 703c dc91 bf3b 3dd3 3fbc
000000d0: f06e 4c3d d0dd 49bd a9b5 2b3d 027c 30bd
000000e0: 4f44 b8bd e439 0bbd 21ca 0d3a 89b3 563d
000000f0: 99a3 a2bd 1f01 bbbd 1c5b f23b e978 d639
00000100: 2e8b 493d 7729 47bb 829c f33c 21a4 2e3d
00000110: 0843 5f3d ae70 d1bd e2c3 f0bd b926 f4ba
00000120: e3c9 c63d 5bc2 043d 24e9 7a3d 89bf 81bd
00000130: 48f5 3abd ecbc b4bd 4cc8 0abc 133a f6bd
00000140: fb6e b83d c82c 14bd 8959 e6bd 8b8c 54bd
00000150: 20d7 653c b8b7 013e 4b31 413d 7025 6cbd
00000160: e1ab 6a3d 1eab e8bc 55d1 b93d 39ff c2bd
00000170: d70c 43bd ab56 febb 00b2 9a3d 9952 313c
00000180: 689b c5bd 0a5d babb f171 8c3b 2acb 253c
00000190: 5613 09bc 0efe f13c a7be afbd 8946 9f3c
000001a0: ed15 573d 4b03 9fbd 03c0 cf3c 3b6d d73d
000001b0: 1274 92bd eb25 8d3c 9b95 853c b2f3 8ebd
000001c0: b1b6 8ebd 6d97 babb e6b4 3c3c c2eb 08bd
000001d0: e93f bf3d 5ca9 ebbd 19b5 02bc c006 b3bd
000001e0: 6ec7 a03d f453 8cbd 138b 86bd 7e07 893d
000001f0: 4d13 bc3d 8381 233e 9fad ae3d 78ad 05bd
00000200: f78a cf3c 81af babd ef77 4c3d e4ce 88bd
00000210: a598 47bc 7e4c 953c 3921 a7bc d338 ffbc
00000220: 3696 ca3d 955b 3e3d 1ccb 2abe aed4 923d
00000230: 59bb 823d e35f 95bb 0146 3bbd 72f0 763d
00000240: 8838 683d 370b 963c a5ac e33d a2a4 183d
00000250: 3c43 9b3d d261 a5bd 1e41 2fbd 2cc0 043c
00000260: b288 96bc 33df acbd 389f 8b3d 8631 5ebd
00000270: 0661 bd3c acc2 463d 275e 21be e1a0 e7bd
00000280: 6c42 80bd b4a1 6dbd ec9e 6dbd 84e2 37bd
00000290: e831 e33c 1444 f7bc 7c1e 383c 72dc 8fbc
000002a0: aa18 ac3d 349f 013c e843 9ab8 533b 5a3c
000002b0: fe98 4bbd 78b1 b33b 3fdd ef3c 3e57 1cbd
000002c0: 1366 ccbc 745d f53c 5e09 423c 3e87 c9bc
000002d0: 9940 0dbc 3f97 813d 945e 3bbb 02c4 9fbc
000002e0: f83e d8bc 0da2 b33d ee8f 0fbe c3c8 9d3d
000002f0: 545e 13bc 69c0 8e3d 9052 d7bd fa85 3cbd
00000300: 5d6c ebbc 9d77 56bd 8370 843d 90cd 29be
00000310: 7b53 3cbd a6fb 79bd 6c8a 863d 27f7 233d
00000320: 2bdc e4bc 4ff2 a1bc 4074 983d 8882 d0bd
00000330: c260 423d 82fd a9bc f80d cdbd 3fc5 89bb
00000340: 1bb4 423d d082 93bc f4f9 ecbd 1973 ae3d
00000350: 82ad cf3c cf62 973d 50c9 6a3c a595 cdbd
00000360: bbab e93d 89bf b63b 961a e43d 5eb3 b33d
00000370: 9c00 e23c b014 f03c d686 b2bc 1086 82bd
00000380: ea6c 82bd 581d 7cbd 83bf 363d 0733 223d
00000390: 9f51 c13b b7f0 553c ab3c 99bd fb29 ad3d
000003a0: f6a3 a13c d44d dfbd ba73 f9bd 2a11 013e
000003b0: 6bce a2bd 71ad 793c 0a7a 6a3c 3600 d63d
000003c0: 6835 54bd 85fa 08be b024 e83d eede 87bc
000003d0: e678 d23c 8d19 67bd 4f73 823c 0017 39bd
000003e0: 2c2d 153d 0c22 3ebd 0abf 673d 53f6 be3d
000003f0: 253a 70bd fb9a b73d ee31 a7bc 5304 923d
0.06819554 -0.19566438 0.08340971 0.0834777 0.02678706 -0.0008073392 0.043777257 -0.11769696
0.034771282 -0.028373457 -0.03007801 0.120298125 0.122038364 0.09580935 0.0048293434 0.082903385
0.01528932 0.008993947 -0.064483345 0.0977085 0.012257257 0.062519394 0.056119833 0.020302432
-0.08194179 -0.10365994 -0.057513915 0.020318652 -0.069352776 -0.11213636 -0.027714504 -0.04844018
-0.021699384 -0.082869455 0.0016070288 0.030059183 0.062213715 0.014955975 -0.010833755 -0.028457878
-0.011706785 -0.13631809 -0.12587252 0.1399718 -0.110391 -0.116621405 -0.07291902 0.05452024
0.11716557 0.014685133 0.005846245 -0.011708078 0.049910486 -0.049283803 0.04192129 -0.043087013
-0.08997404 -0.033990756 0.00054088427 0.05241731 -0.0794136 -0.09131073 0.007396115 0.00040907346
0.049204998 -0.0030389705 0.029737715 0.042636994 0.054507285 -0.1022657 -0.11756112 -0.0018627263
0.097064756 0.032411914 0.061257496 -0.063353606 -0.045644075 -0.088250965 -0.008470606 -0.120227955
0.09005543 -0.03617552 -0.11247546 -0.051891845 0.014028341 0.1266774 0.04716615 -0.05765289
0.057292823 -0.028401908 0.0907313 -0.09521336 -0.047619667 -0.0077617965 0.07553482 0.0108229155
-0.09648782 -0.0056873607 0.004286044 0.010119239 -0.008366426 0.029540088 -0.08581286 0.019442813
0.052511144 -0.077643 0.025360113 0.10518881 -0.07151045 0.017229995 0.016306689 -0.06980075
-0.06968439 -0.005694321 0.011517739 -0.03342796 0.09338362 -0.11506912 -0.007977747 -0.08741522
0.07850538 -0.0685195 -0.06569495 0.06690882 0.09183369 0.15967374 0.08529209 -0.032636136
0.025334818 -0.09115506 0.049919065 -0.06680086 -0.012182389 0.01822495 -0.020401584 -0.031155026
0.09891932 0.04647406 -0.16679043 0.07169472 0.0638339 -0.0045585497 -0.045721058 0.0602879
0.056694537 0.018315895 0.11116914 0.03726638 0.07581183 -0.08075298 -0.04278671 0.008102458
-0.018375728 -0.08441009 0.06817478 -0.054246448 0.023117553 0.048525497 -0.15758573 -0.11309982
-0.06262669 -0.05801554 -0.058012888 -0.044893757 0.027733758 -0.03018383 0.011237737 -0.017561171
0.08403142 0.007911492 -7.355941e-05 0.013319808 -0.04970645 0.0054838024 0.029280303 -0.038169138
-0.024951017 0.029951788 0.011843054 -0.024600621 -0.008621358 0.06327676 -0.0028590309 -0.019502643
-0.026397213 0.08771143 -0.14019749 0.07704308 -0.008994658 0.06970293 -0.105137944 -0.046026208
-0.028738195 -0.052360166 0.064667724 -0.16582322 -0.04597805 -0.061031006 0.065693706 0.040030625
-0.027937016 -0.019768862 0.07444048 -0.10181147 0.047455557 -0.020750765 -0.1001243 -0.004204422
0.047535043 -0.018006712 -0.11571112 0.08518047 0.02535129 0.07391893 0.014330223 -0.10038308
0.11409708 0.005577032 0.11137883 0.08774446 0.027588181 0.02930674 -0.02179281 -0.06373227
-0.0636843 -0.061551422 0.044616234 0.039599445 0.0058996226 0.013057879 -0.074822746 0.08455273
0.019731503 -0.109035164 -0.12180276 0.12604204 -0.07949527 0.015239106 0.014311323 0.10449259
-0.051808745 -0.13376816 0.113351226 -0.016585793 0.025692414 -0.05642085 0.015924124 -0.04518795
0.036420032 -0.04641919 0.056578673 0.09324326 -0.0586492 0.08965107 -0.02040955 0.07129731

lstm.weight_hh_l0_reverse f4 [256, 64]
00000000: 40df e13d c3b9 1f3e 9792 a43d 7363 733e
00000010: 6b38 053d a058 d43d 4ffe dbbd 41fa 60bc
00000020: 12df 2cbd a7db 8f3d 7ea6 343e c311 663e
00000030: 95bf 383d 15a2 303e fd74 8ebd 2287 c93d
00000040: 7877 26be 55f2 603d decc 10be af42 01be
00000050: 58f0 98bd 1b3a 813d 578e 1abb a103 04bc
00000060: ea5a 783d be8b d0bc 2ca3 85bd 3d65 803e
00000070: 4269 26be 0f35 463d ae38 843c 3b33 f43d
00000080: 3237 89bd d039 103e f9a0 64be a4c0 6dbd
00000090: d63a ce3c 99a4 7fbe b4a9 d33c ecd3 173b
000000a0: 7f34 d33d 4a04 b7bc 29e7 0abe 74ee 263d
000000b0: db23 ccbd 3119 933d e243 8c3d a80b 033e
000000c0: a71a 4ebc e4a0 17be 101e e93d 6921 613d
000000d0: 6a22 3a3e 41cc f3bd 00a1 32be 1c1a 733e
000000e0: 8d4a 9abd c6c0 0e3e 50e4 15bd 465c cbbd
000000f0: 3be4 333e f979 593c d496 94bd d6c0 2e3d
00000100: 9a51 d23d 4998 e23d d5d3 563d 2d9a df3d
00000110: e97f 83bd f29f 8b3c c41a 29be 0e83 42bd
00000120: 7e5d 61be 8fcc 4b3e 8744 4e3e b73b cc3d
00000130: f410 8d3d 92fb 983d 728d 08be 2674 d0ba
00000140: f555 e2bd f973 593e 8b5d 44be fadf ecbd
00000150: 0ace 24bd 28d5 2fbd 8add 33bd 999a 79be
00000160: f032 1a3d 0f09 1cbe c216 dcbd c89d 5b3e
00000170: 5e99 d3bd 42a4 9f3c 55b1 543e f8dc c53c
00000180: 68e0 50bd e56a 973d a68c c7bc d4d6 6bbe
00000190: 0a78 ec3d 3e69 64be c51b a63c 0f87 d33c
000001a0: 267a 173e 7e9b cebd 6820 1cbe 1ced 073d
000001b0: ae62 8ebd 6d32 0b3d 57f7 bcbd bfaa 693c
000001c0: 9c73 2ebe f144 483d 0cf4 a93d 2bf7 403a
000001d0: c63a 333d 23ff bfbd 069b 4fbe bbd4 b63d
000001e0: 61bb 30be dc11 273e 829f 54be 3517 74bd
000001f0: b260 7c3e 847c 663c 2ced 39bd b41c 443e
00000200: ca23 953e 1cb7 033e f6a3 f03d 6331 163e
00000210: b26f ddbd 94c9 db3d f9b9 9cbd d6d5 83bd
00000220: cd3e 3fbe ef23 3e3e 4aef 273e bbf6 3a3d
00000230: aed9 7abc 23e1 db3d b843 08be 0adf 1ebd
00000240: 28c3 0cbd 2803 3dbc 78a7 b7bd dd5f 2bbe
00000250: 3449 efbd a5d9 213e e439 11be c35e 2dbe
00000260: cfe3 293e 561e 533e 6d89 8bbe 0e70 0f3e
00000270: 1a7a edbd 255b d33d 9e05 433e 188b 973d
00000280: 2e3b 3bbe 543a bf3d 145f 80be 0cf6 18be
00000290: cf17 5d3e 2dc1 81bd b003 683d d84b b23d
000002a0: 68a8 0c3e 2389 63be 05a1 ebbd 4e42 5c3b
000002b0: bacd 5ebe b68f 82bc 4679 a9bd 4628 293e
000002c0: fcca 3abe 1a9d 0f3d d47f 2f3b 00bd 8c3c
000002d0: 9ec5 ccbd b4c5 25be 1af1 87be ad0e 0f3e
000002e0: ed08 5ebd cc27 bb3d b515 13be 3f61 26be
000002f0: 96cc 373d f57c 1f3c 619f 2cbe d6e0 d13c
00000300: d54c 923c c5f5 4b3e 10d7 733d cb39 863d
00000310: 6d14 c93d ab23 353e 939f ccbd 4b41 19be
00000320: b002 31be bee6 383e 01b8 2b3e e81f 6b3e
00000330: 7301 433e fd50 063e 1fc0 12be 6473 50bd
00000340: 233e 42be 4893 053e 0b3c 7cbe 9c79 54be
00000350: ef09 b8bc d2f6 833e 89c2 173e 648f 01be
00000360: a673 5a3d 16c7 d8bd b6ee 53be f66b 623e
00000370: ffc4 d43c 47a6 f03d 1b65 31be 499e 023e
00000380: fee3 09be 9e35 953c 8672 d1bd 1e33 3abe
00000390: 7899 493e 34f7 16be f2a3 473e 193f 1c3e
000003a0: 8af5 913e 8701 6dbd f987 03be aee1 32bc
000003b0: 5b50 19bd bf3a 713d a916 f23c 6ba3 a53d
000003c0: 94e7 63be ca1a 5bbe f2cb 9d3b e109 8b3d
000003d0: 0fde ae3d 19ec 8ebd e41e 15be abd2 ff3d
000003e0: 3b36 12bd f114 093d 7107 933c 3fea 84bc
000003f0: 039c 9e3d a4f4 1d3e f7f3 5ebe 614b 023d
0.1102891 0.15598206 0.08035772 0.23768406 0.032524507 0.103684664 -0.10741865 -0.01373154
-0.042204924 0.07024317 0.17641637 0.22467713 0.045104582 0.1724933 -0.069559075 0.09840228
-0.16256511 0.054918606 -0.1414065 -0.12623094 -0.07467717 0.06309911 -0.0023583376 -0.008057506
0.060633577 -0.02545726 -0.06525263 0.2507724 -0.1625109 0.048390444 0.016140308 0.11923834
-0.06699981 0.14084554 -0.22327031 -0.058045045 0.02517454 -0.24965133 0.025837757 0.0023167087
0.10312747 -0.022340912 -0.13564743 0.04075475 -0.099677764 0.07182539 0.06848885 0.12797415
-0.012579597 -0.14807469 0.11382687 0.054963503 0.1817719 -0.11904193 -0.17444229 0.23740429
-0.07533751 0.13940725 -0.03659469 -0.09929709 0.17567532 0.013273709 -0.07255331 0.04266437
0.102694705 0.11064202 0.052448113 0.109180786 -0.06420881 0.017044041 -0.16514117 -0.047488265
-0.2200832 0.19902252 0.20143329 0.09972327 0.06887999 0.07469858 -0.13335207 -0.0015903756
-0.11051551 0.21235646 -0.19176309 -0.11566158 -0.040235557 -0.04292789 -0.043912448 -0.2437538
0.037646234 -0.1523783 -0.10746528 0.21446908 -0.10331987 0.019487504 0.20770772 0.024153218
-0.05099526 0.073934354 -0.024359059 -0.23031169 0.11546333 -0.22305772 0.020276913 0.025821237
0.1479269 -0.100882515 -0.15246737 0.03318511 -0.069524154 0.033983637 -0.09226864 0.0142619
-0.17036289 0.048893873 0.08298501 0.00073610496 0.043757223 -0.09374835 -0.2027398 0.08927294
-0.1725898 0.16315407 -0.20763972 -0.059592444 0.24646261 0.014067773 -0.0453922 0.19151574
0.29128867 0.1286282 0.11750023 0.14667277 -0.1081232 0.10731807 -0.07652659 -0.0643727
-0.186763 0.18568395 0.16399875 0.045645457 -0.015310688 0.10736301 -0.13307083 -0.038786925
-0.034365803 -0.011536397 -0.08967489 -0.16735788 -0.11683884 0.15805681 -0.1418224 -0.1693068
0.16590808 0.20617041 -0.27253285 0.14007589 -0.11595555 0.10320119 0.19045112 0.07399577
-0.18284294 0.09337297 -0.2507254 -0.1493761 0.21591114 -0.063356735 0.05664414 0.08705872
0.13736117 -0.22220282 -0.115053214 0.0033608857 -0.21758166 -0.015937667 -0.08275084 0.1651927
-0.18241495 0.035061933 0.0026779072 0.017179966 -0.0999863 -0.16188699 -0.26551133 0.13970442
-0.05420773 0.0913845 -0.1436375 -0.16248034 0.044872843 0.009734382 -0.16857673 0.025619905
0.017858902 0.19917972 0.05953127 0.06553992 0.09818349 0.17689388 -0.09991374 -0.14966314
-0.17286181 0.18056771 0.1676941 0.2296139 0.19043522 0.13116832 -0.14331101 -0.050891295
-0.18969016 0.13044465 -0.2463228 -0.20749515 -0.022465674 0.25774246 0.14820303 -0.12652355
0.053332947 -0.10584848 -0.2069653 0.22111496 0.025972841 0.11750465 -0.17323725 0.12755693
-0.13465878 0.018214043 -0.10226922 -0.18183562 0.1968745 -0.14742738 0.19496134 0.15258445
0.28507644 -0.057862785 -0.12844838 -0.010918064 -0.03743015 0.058893915 0.02955182 0.0808781
-0.22256309 -0.21396938 0.004815572 0.067889936 0.08538448 -0.06978626 -0.14562565 0.124913536
-0.03569625 0.033467237 0.017947884 -0.016224978 0.077446006 0.15425354 -0.21772753 0.03181017

lstm.bias_ih_l0_reverse f4 [256]
00000000: 9b91 d13d 07ff 233e df85 d73d acfd 923d
00000010: 7df5 633e c72b 833e d43b 853e 6f44 403e
00000020: 14a9 023e 62c8 363e ce7b 553e 8209 ae3d
00000030: d260 493d e2cb 3c3e 94f2 573e 2f8a 153d
00000040: acc2 0d3e 7412 3b3e 8eed 813e 161e 553e
00000050: da0f 2f3e 8e34 733d 1e85 063e 41e9 4f3e
00000060: 4712 023e 651f b03d 0aba 863d c14e 883e
00000070: 3175 ec3c 8927 313e 1ee6 4b3d b454 553e
00000080: 0a2a 183e 9d8d a23e 54e9 343d f2b5 653e
00000090: 928d a63d e63c 7f3e 161b f73d bcb7 703e
000000a0: bb42 4f3e 4494 bb3d 805e 493e e404 03bb
000000b0: c09a 7e3d aa5c 793e d3b4 533e 911b 7a3d
000000c0: 6f35 4d3d 9a29 2f3e 3198 fe3d 9d5c 703d
000000d0: f2dc 903d 7b71 0e3e a77c 373d 2900 8b3e
000000e0: a9b4 a93d 1fc8 233e fbf2 5e3e eda7 3f3d
000000f0: 0313 c13e 4a1f 043e 44cc ca3e 75a7 3a3e
00000100: 0193 823d ed8f b63b 87c5 c1bd 2d1b 97bd
00000110: f5f4 f1bd 8504 de3c 0a78 f1bc 1abc d83d
00000120: 6ea0 a93d 1fcb 0e3e 6ae4 de3d 7cc3 8ebb
00000130: 7e1a 97bd dfc2 0e3e 7aea 3ebc e2e8 cfbb
00000140: c764 9bb9 5b10 aabd de77 cd3d d08b 553c
00000150: 1676 adb9 0dc4 8d3d 1e26 67be c28e 18be
00000160: abc0 6c3c 15f3 97bd 54b9 8e3a c254 0e3d
00000170: a394 7b3d 4f35 1cbd ff33 8c3d 0780 c33d
00000180: 33b7 dabc c504 e5bc 035f 593d 5130 9f3c
00000190: ecef 3ebc 0cc2 7b3d ee9b 933d b3b6 563d
000001a0: d85f cbbc 3666 0cbe e180 d73d 2ed8 0abe
000001b0: 6748 9abc 8c60 fe3d b6a0 3fbe 1271 5f3c
000001c0: 6880 a63d c09b 8c3d e2d0 8ebb 2053 83bd
000001d0: 0423 9f3a 2a96 aa3c 29bb 58bb 44b5 22bd
000001e0: a7c4 8b3d 5be1 453d 5ef7 fd3d b7ae 09bd
000001f0: 8922 873d d9a7 1d3c f02a 59bd 0aa4 88bd
00000200: 7ade 823d 5c46 243e d812 4d3e ff47 7c3e
00000210: a4ec a3bc 6ebc 2b3d a4cc 1cbe 8ad2 80be
00000220: 1b6f 16be ddd8 793e b545 983e 21a3 903e
00000230: 8b95 233e 8633 3e3e 3641 efbd 0d62 f13c
00000240: 78c2 5fbe 8f17 273e 7d9b 60be 0570 48be
00000250: 5d2d 05be ae4e c23c 74ed 37bc 545a a6be
00000260: ab68 f3bc 8a23 fabd 7389 75be 2a08 783e
00000270: 182d 1fbc 5ff1 aa3d 107f dd3d b1e3 d53d
00000280: e3d8 9cbe 408e 153e 74e9 3abc ada6 7abe
00000290: 200e e03d cead 51be 8bf7 023e 0404 843e
000002a0: 6b45 913e 385e 10bd c167 aabe e52c 84bd
000002b0: f849 97bd 3de3 7d3e 66ba 313b b35d 2e3e
000002c0: 9dee 81be 6af9 debd 089f 993d 5b0d 953c
000002d0: 6d5c 5a3e e286 01be 4f4c 16be 439f a33d
000002e0: 54ef 60bd 8403 b63c ca1e 7dbe 1c39 89be
000002f0: e8cb 983e 5a5f f33c 8655 8ebe e9d8 f63c
00000300: afd0 ee3d d8bb 6e3e 44dd dd3d 5bb4 a63e
00000310: b12f 083b fe51 3d3e fda1 0f3d 76c5 7b3e
00000320: 77e7 cc3c 8319 7a3e 2160 023e 4558 853e
00000330: 9ee8 5e3e 2b2c af3c af91 963e 32f2 5e3d
00000340: fc27 c53d 87ca 993e ffc5 513e 41ca a53d
00000350: 6a42 1d3e daae 793e b93b 4d3e ebd6 9a3e
00000360: 5c0f 563d 0fc1 773e 48e1 013e 3d9f 773e
00000370: 85c5 613d 1098 313e 7009 453d db0a 563b
00000380: 54c4 683e b45d 753e 9eac cb3d 50ae 1b3e
00000390: 3534 0a3d e61b 083e ac83 213e 4490 043e
000003a0: 68c4 443e 4695 863c 6295 953e 5c79 b13d
000003b0: 8077 443c e23c 5e3e 1be1 c83d ad0b a93d
000003c0: 4a26 073e 366f 573e 35f4 6a3e 901b 183d
000003d0: f03d 853e 8059 693e 9cdc 003e 74e4 3c3e
000003e0: 2e18 003d c2fc e03c 9a27 0e3e 1542 393e
000003f0: 2a9d 433e 10de 9b3d c554 263e a821 403d
0.1023285 0.16015254 0.10523581 0.0717729 0.22261615 0.25619337 0.26022208 0.18776105
0.1275981 0.17849877 0.20848009 0.08497907 0.0491646 0.1843715 0.2108863 0.036508735
0.13843793 0.18268758 0.25376552 0.20812258 0.1709589 0.059376292 0.13136718 0.20303823
0.12702285 0.08599738 0.06578453 0.26622584 0.028864475 0.17300238 0.049780004 0.20833093
0.14859787 0.31748667 0.04416783 0.22432688 0.08132471 0.24925575 0.12065713 0.23507589
0.202403 0.09159139 0.19664955 -0.0019991929 0.0621593 0.24351755 0.20674448 0.061061446
0.050099786 0.17105713 0.12431372 0.058682073 0.07073392 0.13910477 0.044796612 0.2714856
0.08286411 0.15994309 0.21772377 0.046791006 0.37709817 0.12902561 0.39608967 0.18227942
0.06375695 0.0055713565 -0.094615035 -0.0737823 -0.118143 0.027101764 -0.029476184 0.105827525
0.08282553 0.13944672 0.1088341 -0.0043567996 -0.073781 0.13941525 -0.011652583 -0.0063449005
-0.0002963899 -0.08303901 0.100326285 0.013033822 -0.00033085112 0.06922159 -0.22573134 -0.14898208
0.0144502325 -0.07419411 0.0010888972 0.0347488 0.061421048 -0.038136777 0.06845855 0.09545904
-0.026698684 -0.027956376 0.053069126 0.019432219 -0.0116538815 0.061464354 0.072074756 0.05242033
-0.024825975 -0.13710865 0.105226286 -0.13559029 -0.018833352 0.124207586 -0.1871365 0.013637798
0.0812996 0.068656445 -0.004358397 -0.06412339 0.0012141173 0.020823557 -0.003307054 -0.03972365
0.06824618 0.04831062 0.12400697 -0.033613887 0.06598384 0.0096225375 -0.053019464 -0.06671913
0.0639009 0.16042465 0.2002672 0.2463684 -0.0200103 0.041927747 -0.15312439 -0.2516063
-0.14690821 0.24399133 0.29740682 0.28249457 0.15975015 0.18574342 -0.1168236 0.0294657
-0.21851528 0.1631758 -0.21934314 -0.19573982 -0.13005586 0.023719158 -0.011226047 -0.3249079
-0.029712996 -0.1221381 -0.23978214 0.24221864 -0.009715341 0.08346819 0.10815251 0.10443819
-0.3063422 0.14605045 -0.011408199 -0.24477644 0.10940194 -0.20476457 0.12789743 0.25784314
0.28373274 -0.035246104 -0.33282283 -0.064538755 -0.07387155 0.24793716 0.0027119159 0.17027931
-0.2537736 -0.10887416 0.07501036 0.018194845 0.2132432 -0.1264911 -0.14677547 0.07989361
-0.05491574 0.022218473 -0.24718776 -0.26801383 0.29843068 0.029708553 -0.27799624 0.030132728
0.11660897 0.23313844 0.10833219 0.32559475 0.002078038 0.18488309 0.035066593 0.24587044
0.025012715 0.24423794 0.12731983 0.26043907 0.21768424 0.021383366 0.29408023 0.054430194
0.09626767 0.3003733 0.20485686 0.080952175 0.15357366 0.24383107 0.20042314 0.30242094
0.05226074 0.2419474 0.12683594 0.24181838 0.05512001 0.17343163 0.048104703 0.003266028
0.22731143 0.23961526 0.099450335 0.15203214 0.033741195 0.13291892 0.15772885 0.12945658
0.19215548 0.016428601 0.29215533 0.086657256 0.011991382 0.21702912 0.098085605 0.0825418
0.131982 0.21038517 0.2294472 0.03713566 0.26023817 0.22788048 0.12584156 0.18446523
0.03127306 0.027464274 0.13882294 0.18091615 0.19102922 0.076107144 0.16243275 0.046907097

lstm.bias_hh_l0_reverse f4 [256]
00000000: f753 143e 4c91 6e3e 3b9e 7b3c 279b 6c3e
00000010: 74be c33d 8881 873e 7b34 3e3e 3f16 503e
00000020: 74b9 de3d b33f 073e 2f8e 843e 05bb ba3d
00000030: 23cf 853e 3507 3f3e ff5b e33d 206f c23b
00000040: b28d 3b3e ea11 6e3e 47d4 0d3e 7d8b e63d
00000050: 45f5 b83d 506e 223e 2ced 553d eba0 743e
00000060: bca8 96bc 252f 873e 9bab 073e 404f 183e
00000070: 1289 083d 1a7a 703e 22e0 e03d bd7e 063d
00000080: f2c3 853e 1718 a13e fc11 383e f9f7 393e
00000090: 550b 1b3e 1a6c 153e 188f 8d3d 6788 f03d
000000a0: e5ae 933e 266f 763d 85e0 8d3e 954c 243c
000000b0: 097e 263d 6541 323e 67d4 d83d 86ca 2f3d
000000c0: 4614 aa3d 03a7 083e e1ed d73c a37d 6f3d
000000d0: ac6a fa3d 1823 983d 9519 3a3d 42fb 113e
000000e0: 668f 233d d229 f3bc 0c36 ee3d cb6e 6b3e
000000f0: 7639 4d3e b731 003e 4798 6f3e fef1 3b3e
00000100: c827 313d 1acd b0bd 6de7 9fbc 30f1 973d
00000110: ebe9 1bbe c330 aebd 2845 0b3d 64c2 663d
00000120: 886b 2bbd 927b 6f3d f0cc d4bb ff68 a43d
00000130: cd46 0ebd ac16 0a3d ee3a f1bc bba6 9b3d
00000140: ee5c 1abd d013 8bbc 70db 023d eaef 45bd
00000150: dc00 143e d9e0 84bd 6330 4fbe c880 55be
00000160: c948 b63d 4e91 4cbd 5078 313d 5fb6 c8bd
00000170: 1bc1 16bc 3db9 413c 5af9 103d 4f12 e13d
00000180: 9f3c a8bc b736 c93c a139 27bd 0ac5 22bd
00000190: a99e aa3d 29d3 0d3e 6b50 d0bd 6dba 903d
000001a0: b5ae 48bd 5858 9f3a 1bb9 0c3d 5a68 1dbe
000001b0: 6720 f5bc 566e 24bd 1e4e 40bd 66bf 5f3d
000001c0: b456 87bd c63e 843d 0ec4 023d 488e 453d
000001d0: 9cb4 97bd 2bcf 783c 5381 713c d219 c43d
000001e0: 8ff6 773d 516f dc3d 2ff6 3bbd c71b 9d3d
000001f0: e34c 06bc 4b0d 073d a47d 5dbd 1869 36bd
00000200: 9a6a 553e b7f1 9b3e 6ee2 2d3d 9b11 173e
00000210: 64b3 e33c 2c07 363e 1b1f 37be 9aba 18be
00000220: b14b 73be cc30 713e 36de 953e 1938 313e
00000230: f753 293e 37c2 2b3e 4b3c 96be e46c ac3d
00000240: c602 a1be 6c1d 643e 0605 27be c05a f2bd
00000250: 6387 56be 1d70 f53d d9b9 583d 3e80 33be
00000260: cea6 c73d f6db fcbd 5359 10be f754 183e
00000270: 3b3e 24be d95b 723e e145 bf3d ef4f 503e
00000280: c43a 8bbe dfa9 6a3e 53f9 67be 0531 74be
00000290: 4616 1c3e 2628 87be 9a54 cebb 1a73 703d
000002a0: 0b61 d73e a28c babd 8df0 62be 6d7c c4bd
000002b0: fd57 75be 8f86 8b3d 790d 733d 97c0 293e
000002c0: 49cb 94be b633 0cbe 547b 433e 70cd 333e
000002d0: c82c a93e 6400 4ebe 8e9a 60be d22d 813e
000002e0: 44b8 67be d888 3a3b 266d 2cbd 831c 36be
000002f0: 43ea 6c3e 8b16 62bc 4b80 b3be 3b74 483d
00000300: 76aa 123e e0e7 5c3e 62d5 523e 8f36 2e3e
00000310: be9e 533d bd50 883d 8784 753e ea3f 723e
00000320: 8db8 603e 5b22 ce3d 12ac 803e cb81 533e
00000330: f34a 8b3e eefc 5b3e ef60 433e 6568 303d
00000340: 616a 483e ab2a 9b3e e1c2 8d3e 958e 213e
00000350: 7160 683e 2e14 8a3e 0c6a 3d3c 7a52 263e
00000360: beab 213e ca38 7f3e f2ab 4e3e 39de 153e
00000370: 60c8 8a3e f7c4 7a3e bceb 853e 5860 f93d
00000380: 10ca 653e 34fd 2e3e 023b 453e 6fc1 3a3e
00000390: 037e 573e a0b0 383e 1dd3 0e3d 2725 803e
000003a0: 40db 473e 7bc9 3d3e 1b65 af3e 6494 283e
000003b0: ee0d 223e 9b1a cc3d 664b 3c3e 08b9 ab3d
000003c0: c6f5 2e3e 84d1 403e 3a10 3c3e c38b 123e
000003d0: a1be 383e 0f25 c73d 39cd de3d 47e7 763e
000003e0: 7cd1 463e 4298 173e e27c 213e 2517 143e
000003f0: db13 593e 0774 343e 65b0 793e 7f64 383e
0.14485155 0.23297614 0.015357549 0.23106061 0.095578104 0.26466012 0.18574707 0.20320986
0.10875216 0.13207893 0.25889727 0.091177024 0.26134595 0.18655093 0.11101531 0.0059336573
0.18315771 0.23249021 0.13850509 0.11257074 0.090311565 0.15862393 0.052228138 0.2388951
-0.018391006 0.26403156 0.13249056 0.14873981 0.033333845 0.23484078 0.1098025 0.03283571
0.26126057 0.31463692 0.1797561 0.18161 0.15141042 0.14592019 0.069120586 0.11744767
0.2884437 0.060164593 0.27710357 0.010028024 0.04064754 0.17407759 0.105873875 0.04291775
0.08304648 0.1334496 0.026358547 0.058469426 0.12227377 0.074285686 0.045434553 0.14256003
0.039931677 -0.029683027 0.116314024 0.22991483 0.20041451 0.12518965 0.23397933 0.18354031
0.04325083 -0.0863287 -0.019519532 0.0741905 -0.15225951 -0.08505394 0.0340015 0.05633773
-0.041850597 0.058467455 -0.006494157 0.08027839 -0.03473549 0.033713028 -0.029447045 0.07600161
-0.03768628 -0.01697722 0.031947553 -0.048324503 0.14453453 -0.06488199 -0.20233302 -0.20849907
0.089006014 -0.04994326 0.04332763 -0.098004095 -0.009201313 0.011823949 0.03539405 0.1098982
-0.020536719 0.024562223 -0.040826444 -0.039738692 0.08331043 0.13850082 -0.101715885 0.07066808
-0.04899474 0.0012157066 0.034356218 -0.15371838 -0.029922677 -0.040144287 -0.0469495 0.05462589
-0.06608334 0.064572856 0.031925254 0.048231393 -0.074074954 0.015186111 0.014740306 0.09575237
0.06053787 0.107634194 -0.045889076 0.07671314 -0.008197042 0.03297166 -0.0540749 -0.04453382
0.20841447 0.3045785 0.04245227 0.1475281 0.027795501 0.17776173 -0.1788296 -0.14914933
-0.23759343 0.23553771 0.29271096 0.17306556 0.16535936 0.16773306 -0.29342875 0.08419207
-0.31447428 0.22276849 -0.1631051 -0.118337154 -0.20950083 0.119842745 0.052911613 -0.1752939
0.09748612 -0.12346642 -0.14096574 0.14876162 -0.16039364 0.2366785 0.093395 0.20342992
-0.27193272 0.22916363 -0.22653703 -0.23846824 0.15242872 -0.26397818 -0.0062967064 0.05870352
0.42066225 -0.09108855 -0.22162075 -0.09594045 -0.23959346 0.068127744 0.05933902 0.16577373
-0.29061344 -0.13691601 0.19090015 0.17558837 0.33041978 -0.20117337 -0.21933958 0.2523027
-0.22628886 0.0028462913 -0.04209628 -0.17784314 0.23136239 -0.01379932 -0.35058817 0.04893897
0.14322838 0.21572828 0.20589212 0.17013 0.05166506 0.066560246 0.23976336 0.23657194
0.219454 0.100651465 0.2513128 0.20654981 0.2720562 0.21483204 0.19079946 0.04306831
0.1957183 0.3030599 0.27687743 0.15777047 0.2269304 0.2696852 0.011560928 0.162424
0.1578817 0.24924007 0.2018278 0.14635552 0.27106 0.24489199 0.26156414 0.12176579
0.22440362 0.17088777 0.19260791 0.18237852 0.21044163 0.18036127 0.034869302 0.25028345
0.19517231 0.1853389 0.34256825 0.16462857 0.15825626 0.09966012 0.18388137 0.08384901
0.17085943 0.18829924 0.18365565 0.14311127 0.18041469 0.09723865 0.10878987 0.24111663
0.1941585 0.14804175 0.15770295 0.14461954 0.2119898 0.17622386 0.24383695 0.18007086
