Reader/chatbot/saved/EntityRecognizer/EntityRecognizer.pth (torch_old, 406645 bytes, 10 tensors)

lstm.weight_ih_l0 f4 [256, 128]
0.029057896 -0.11125075 0.048639722 -0.0021527512 0.015227664 0.13528936 0.0028581917 0.20081076
-0.12219955 0.02138042 -0.19382085 0.018308917 -0.0627725 -0.029496081 -0.053429052 0.13670386
-0.029612055 0.13158101 -0.09426792 0.060697313 -0.10263381 0.10302997 0.008112479 -0.03920472
-0.03381474 0.014608846 -0.008054763 0.14914882 0.08824588 -0.077247985 0.027030073 -0.03127854
-0.027250513 -0.17615877 0.0148457205 0.056730155 -0.21448648 -0.015972532 -0.14598812 -0.15523893
-0.06038598 0.025982263 0.025400007 0.13700108 -0.0072406298 -0.10555226 0.08722193 -0.13474414
0.029231172 0.059816066 0.084358044 -0.059559677 0.14712286 0.15600328 -0.027432745 0.045433212
-0.025788289 0.10456414 0.14573027 -0.045798283 -0.13372876 -0.054545384 0.083628185 0.053963456
0.05295491 0.04149607 0.044853996 -0.042003427 0.19629604 0.05111484 0.018741488 -0.11118431
0.063445844 -0.010534178 -0.11769107 -0.06325252 0.0733867 -0.004432901 0.10772814 -0.15320511
0.19265755 0.04904417 0.05343293 -0.030825637 0.07771813 -0.039825827 -0.103231244 0.10471531
-0.13355125 -0.12904038 0.008920511 0.13192314 -0.07759712 0.111709476 -0.03220961 0.09588766
0.05846928 -0.013347693 0.13062172 0.042115446 0.15999356 0.09646397 0.11116031 -0.041105773
0.14772771 0.0012266433 0.03180431 -0.03449123 -0.015529654 0.05201145 -0.051205292 0.10434012
-0.21453972 -0.0146454945 -0.09351378 0.11960394 0.089711316 0.008092348 -0.15252194 -0.17058302
-0.020561134 0.078085564 0.0053910795 0.08785921 0.10619385 0.078800574 0.006948297 -0.081403054
-0.08658229 -0.117603116 -0.048424933 0.013986754 0.16343868 0.030779665 -0.14305621 0.06337138
0.05588889 -0.072188176 -0.08292366 -0.07401496 -0.058889102 -0.0063237124 -0.008726655 -0.053693227
0.16653928 0.13281597 -0.07273464 -0.13894895 -0.21023461 0.11822653 0.15570879 -0.23144642
-0.028020142 0.026287587 -0.10971188 0.04993088 0.021411033 -0.026706321 -0.032962773 0.13455214
-0.070267715 -0.06469197 0.10861929 0.22194377 -0.30100933 -0.017065696 -0.074625656 0.053767733
-0.1425229 -0.16422403 0.066685565 -0.067037135 -0.042073682 -0.01248566 0.135879 -0.11871243
0.11744852 0.07918522 0.19108634 0.02445158 -0.073463425 0.102639325 -0.10158803 0.09878696
0.06744246 0.10858412 0.053429753 -0.10151079 0.04528065 0.025078041 -0.023306355 -0.0942255
0.05129157 -0.12501995 0.04857795 0.029790966 0.11394067 0.011083472 0.090808205 0.062046807
-0.027753172 0.0800534 -0.03705217 -0.1617107 0.14225303 -0.032502864 0.035664488 0.11620171
0.07710016 0.1768224 -0.0040086526 -0.08943256 0.10979357 -0.013049075 -0.05818393 0.07715157
-0.04879407 0.031015322 0.103332266 0.012218484 -0.08313133 0.051497053 -0.0020137927 0.04509651
0.036412068 0.10337496 0.07873354 0.079737976 0.05518369 0.25272867 0.14477788 0.035171926
0.08741872 0.085231036 0.058680203 -0.01941319 -0.0038369421 0.08141403 -0.08819627 0.14461504
-0.055693414 -0.053304777 -0.11368774 0.1786776 0.20524596 0.10035702 -0.07274058 -0.03532314
0.15434414 -0.0015803669 0.043890227 0.1200183 0.10291038 0.0710014 0.07822423 -0.12299703
00000000: d30a ee3c 6fd7 e3bd 723a 473d 2c15 0dbb
00000010: 747d 793c 4b89 0a3e 8050 3b3b 56a1 4d3e
00000020: c243 fabd fe25 af3c f978 46be 95fc 953c
00000030: de8e 80bd c4a1 f1bc 6cd8 5abd 19fc 0b3e
00000040: fb94 f2bc 2cbd 063e 8a0f c1bd bf9d 783d
00000050: ad31 d2bd 6001 d33d 34ea 043c 2195 20bd
00000060: 5381 0abd f159 6f3c 20f8 03bc 78ba 183e
00000070: 42ba b43d 3134 9ebd 2c6e dd3c ed1d 00bd
00000080: 783c dfbc f762 34be 773b 733c e15d 683d
00000090: 58a2 5bbe d4d8 82bc e97d 15be f4f6 1ebe
000000a0: 4a57 77bd c1d8 d43c ad13 d03c 034a 0c3e
000000b0: ce42 edbb c92b d8bd 69a1 b23d 5efa 09be
000000c0: 3676 ef3c b101 753d e9c3 ac3d d9f4 73bd
000000d0: 60a7 163e 53bf 1f3e a3ba e0bc 2d18 3a3d
000000e0: f641 d3bc b925 d63d 513a 153e fb96 3bbd
000000f0: 31f0 08be fb6a 5fbd 4145 ab3d c908 5d3d
00000100: 3fe7 583d c8f7 293d d3b8 373d c90b 2cbd
00000110: d401 493e cb5d 513d c087 993c 99b4 e3bd
00000120: e5ef 813d 8c97 2cbc 0408 f1bd 8a8a 81bd
00000130: c44b 963d de41 91bb 92a0 dc3d cde1 1cbe
00000140: 0548 453e 8ae2 483d 7ddc 5a3d 0c86 fcbc
00000150: af2a 9f3d 6820 23bd e76a d3bd fb74 d63d
00000160: a9c1 08be 2923 04be 5627 123c dc16 073e
00000170: 3deb 9ebd f0c7 e43d 39ee 03bd c060 c43d
00000180: 7c7d 6f3d 48b0 5abc b3c1 053e 3f81 2c3d
00000190: 5ad5 233e e78e c53d 04a8 e33d 875e 28bd
000001a0: ef45 173e 52c7 a03a 3c45 023d ad46 0dbd
000001b0: 1770 7ebc f509 553d a4bc 51bd 46b0 d53d
000001c0: 4db0 5bbe a8f3 6fbc 2784 bfbd e9f2 f43d
000001d0: 91ba b73d c595 043c b62e 1cbe 51ad 2ebe
000001e0: d36f a8bc 53eb 9f3d a7a7 b03b 88ef b33d
000001f0: 297c d93d 3262 a13d 8aae e33b a5b6 a6bd
00000200: 0e52 b1bd e7d9 f0bd 3959 46bd b328 653c
00000210: 785c 273e a325 fc3c 547d 12be dbc8 813d
00000220: c0eb 643d 65d7 93bd e1d3 a9bd 2895 97bd
00000230: b335 71bd 2537 cfbb 3efa 0ebc 6eed 5bbd
00000240: 4689 2a3e e900 083e e6f5 94bd a248 0ebe
00000250: be47 57be c020 f23d 2072 1f3e 4a00 6dbe
00000260: 7f8a e5bc 1159 d73c 9fb0 e0bd 5384 4c3d
00000270: 3166 af3c 37c7 dabc f903 07bd 09c8 093e
00000280: 85e8 8fbd 397d 84bd ca73 de3d 3a45 633e
00000290: e51d 9abe 5ccd 8bbc 56d5 98bd 8e3b 5c3d
000002a0: 86f1 11be 582a 28be 7192 883d c44a 89bd
000002b0: 7455 2cbd a790 4cbc dd23 0b3e 811f f3bd
000002c0: da88 f03d dc2b a23d 23ac 433e ae4e c83c
000002d0: fe73 96bd 9134 d23d 630d d0bd d150 ca3d
000002e0: 461f 8a3d 5a61 de3d 28d9 5a3d e4e4 cfbd
000002f0: 3478 393d 7770 cd3c f8ec bebc 4df9 c0bd
00000300: 1c17 523d 3b05 00be acf9 463d 2f0c f43c
00000310: ba59 e93d 7397 353c a7f9 b93d cb24 7e3d
00000320: 9f5a e3bc 09f3 a33d 04c4 17bd 7d97 25be
00000330: c7aa 113e b921 05bd ed14 123d 2afb ed3d
00000340: b0e6 9d3d ee10 353e 045b 83bb 6b28 b7bd
00000350: 74db e03d cacb 55bc 4652 6ebd a401 9e3d
00000360: 4adc 47bd d813 fe3c de9f d33d 0930 483c
00000370: c240 aabd 93ee 523d d6f9 03bb 1eb7 383d
00000380: d224 153d 40b6 d33d 0d3f a13d aa4d a33d
00000390: 4b08 623d a765 813e a740 143e 7010 103d
000003a0: 9608 b33d 9c8d ae3d a75a 703d 6908 9fbc
000003b0: 3575 7bbb 66bc a63d 3fa0 b4bd f715 143e
000003c0: c71e 64bd 1c56 5abd 1ed5 e8bd 43f7 363e
000003d0: ff2b 523e fb87 cd3d 03f9 94bd ffae 10bd
000003e0: 640c 1e3e 5024 cfba 3dc6 333d 28cc f53d
000003f0: adc2 d23d 2f69 913d 0634 a03d dee5 fbbd

lstm.weight_hh_l0 f4 [256, 64]
-0.04327632 0.083000325 0.0055004433 -0.07959211 0.038220916 -0.020458514 -0.24952324 0.27846318
0.06902422 0.023008006 0.11715791 -0.18337438 0.1368084 0.25211754 0.07120731 -0.28231657
-0.008929591 -0.043761205 -0.12727481 0.1426009 -0.266619 0.08770138 0.0028122736 0.14096424
0.26027563 -0.015397531 0.03525394 -0.05794149 0.1988052 0.09161784 0.068310864 -0.015112488
0.2002478 0.093949325 -0.11700572 -0.26984918 -0.08215859 -0.2168264 -0.045524217 0.06774506
0.051089115 0.1540657 0.0051855287 -0.08462231 -0.10426981 0.24742807 -0.094132304 -0.11587278
-0.07430276 0.117097214 -0.10638064 0.010150374 -0.09995287 -0.12147174 0.10132903 -0.12866642
-0.12930664 0.060027912 -0.08417495 0.11549222 -0.07358623 -0.060966536 -0.21072048 0.06221054
-0.15740994 0.030059911 0.05396503 -0.09056252 0.049618814 0.11388548 -0.09724248 0.09128509
0.04166514 0.05685363 0.12292965 -0.18524271 0.0009385151 0.09204079 -0.012606039 -0.057573713
0.067839764 -0.010441762 0.036186036 0.031086817 -0.124397196 0.057050858 -0.06250475 -0.022505416
0.07455916 0.14647295 0.044689838 -0.0215794 0.079796724 -0.019814452 0.057948805 0.055175565
0.08873481 0.051566172 -0.095253944 -0.14563335 -0.10376567 -0.04451686 -0.08516203 -0.030145641
-0.06079151 0.15393715 0.051908992 -0.03509624 -0.057618815 0.10085494 0.043671925 -0.09296668
-0.07826458 0.1074545 -0.076510206 -0.031121807 -0.029511422 -0.12944736 0.0696925 -0.18768738
-0.030211523 0.043472525 0.035451792 0.02401309 -0.02099269 -0.1466798 -0.08324286 0.05819314
-0.06539904 -0.0039217435 -0.018104715 -0.042519927 0.09402082 0.05943034 -0.004520994 0.072141364
0.052089382 0.035887104 0.09686743 -0.08193091 0.11597132 0.06460817 -0.114788 -0.040415604
0.08545001 -0.010425265 0.03602776 0.03456399 -0.06657005 0.14097394 -0.035251908 -0.09370143
0.030976763 -0.03756068 0.10614484 0.07212832 0.07245796 -0.061186846 0.085454024 0.13039568
0.010561695 0.0103955595 -0.008153355 -0.03582637 -0.11883021 -0.1106473 -0.075806886 0.010295237
-0.075230636 0.013171491 0.09124959 0.0008871467 0.04443302 0.055232737 0.064284965 0.012067528
-0.04326307 0.009302857 -0.13228507 -0.034381695 0.0040161796 -0.042949483 0.033763815 -0.11641283
-0.05079702 0.016698707 0.06155133 -0.013545894 0.036038306 -0.10121004 -0.06456378 0.11402473
-0.17053936 -0.036236353 0.055589247 -0.11632573 0.10768796 0.23630626 -0.054734677 0.1268788
0.08431285 0.094782755 0.12407151 -0.18817239 0.06572779 0.11919161 -0.05810829 -0.053566195
0.117430665 0.02506812 0.0012495032 0.24957147 -0.16134453 0.09602004 -0.15585889 -0.09379692
0.05283568 0.062146828 0.16893516 -0.0033894232 0.09478331 -0.023357574 0.0810369 0.027446378
0.12758827 0.047717977 -0.09993176 -0.14518213 -0.25986987 -0.14975809 -0.14533189 -0.066059776
-0.17614852 0.2114304 0.011057093 -0.009068269 -0.1885125 0.11339053 0.026030395 -0.23540527
-0.13930658 0.12143057 -0.06420011 -0.081871666 -0.05236795 -0.19322526 0.07275397 -0.18186072
-0.2061692 0.0750675 0.11701832 0.056885444 0.15239492 -0.13402389 -0.04443211 0.19835293
00000000: 8342 31bd 13fc a93d 103d b43b 3001 a3bd
00000010: 898d 1c3d 9d98 a7bc 0583 7fbe ba92 8e3e
00000020: 925c 8d3d 497b bc3c 7cf0 ef3d 7ec6 3bbe
00000030: 8017 0c3e 8d15 813e 23d5 913d cc8b 90be
00000040: 6b4d 12bc f33e 33bd 5454 02be f805 123e
00000050: 4982 88be c89c b33d 1f4e 383b ee58 103e
00000060: d942 853e ed45 7cbc 6f66 103d 0e54 6dbd
00000070: 9793 4b3e 22a2 bb3d 91e6 8b3d 5e9a 77bc
00000080: c20d 4d3e 8168 c03d b2a0 efbd ac29 8abe
00000090: c342 a8bd bd07 5ebe 9a77 3abd ecbd 8a3d
000000a0: d242 513d 66c3 1d3e 5eeb a93b 764e adbd
000000b0: 698b d5bd c95d 7d3e 70c8 c0bd b54e edbd
000000c0: 0c2c 98bd aad0 ef3d 18de d9bd c14d 263c
000000d0: 17b4 ccbd 2dc6 f8bd 9885 cf3d 21c1 03be
000000e0: f668 04be d4df 753d eb63 acbd 2f87 ec3d
000000f0: 61b4 96bd 0cb8 79bd 1cc7 57be 7bd0 7e3d
00000100: 1230 21be 3440 f63c 6f0a 5d3d d878 b9bd
00000110: 193d 4b3d ca3c e93d 1127 c7bd adf3 ba3d
00000120: 11a9 2a3d 5adf 683d 8ac2 fb3d 44b0 3dbe
00000130: af06 763a e27f bc3d 8f89 4ebc 6ad2 6bbd
00000140: 93ef 8a3d ed13 2bbc cf37 143d c8a9 fe3c
00000150: f5c3 febd 29ae 693d 7e02 80bd 475d b8bc
00000160: 79b2 983d 01fd 153e b10c 373d 48c7 b0bc
00000170: 776c a33d eb51 a2bc ba5b 6d3d c6ff 613d
00000180: 99ba b53d 0d37 533d 8014 c3bd e920 15be
00000190: 1883 d4bd 5057 36bd 6e69 aebd fef3 f6bc
000001a0: 8500 79bd b3a1 1d3e 869e 543d 13c1 0fbd
000001b0: b501 6cbd 098d ce3d 55e1 323d 5165 bebd
000001c0: 2e49 a0bd 1b11 dc3d 62b1 9cbd 29f3 febc
000001d0: f0c1 f1bc d98d 04be f1ba 8e3d 1f31 40be
000001e0: 287e f7bc 3f10 323d e635 113d 1ab7 c43c
000001f0: ddf8 abbc 3b33 16be 3c7b aabd ee5b 6e3d
00000200: efef 85bd f881 80bb 5750 94bc 6029 2ebd
00000210: fd8d c03d 3a6d 733d d924 94bb dabe 933d
00000220: ad5b 553d 5bfe 123d 6e62 c63d 65cb a7bd
00000230: 5f82 ed3d 4a51 843d f915 ebbd d58a 25bd
00000240: 6a00 af3d bbce 2abc d891 133d f892 0d3d
00000250: e155 88bd 795b 103e 4e64 10bd 89e6 bfbd
00000260: fbc2 fd3c 3ad9 19bd 7762 d93d 03b8 933d
00000270: d764 943d 0f9f 7abd 8502 af3d 7286 053e
00000280: f60a 2d3c 2352 2a3c a695 05bc acbe 12bd
00000290: 415d f3bd 0d9b e2bd a440 9bbd 5bad 283c
000002a0: 8512 9abd 3dcd 573c 11e1 ba3d 688f 683a
000002b0: 66ff 353d b93b 623d d6a7 833d e2b6 453c
000002c0: 9e34 31bd 036b 183c bd75 07be d2d3 0cbd
000002d0: 289a 833b cceb 2fbd ed4b 0a3d da69 eebd
000002e0: 8910 50bd bacb 883c 3f1d 7c3d 99ef 5dbc
000002f0: e79c 133d 3647 cfbd 043a 84bd cc85 e93d
00000300: dfa1 2ebe 926c 14bd 8db1 633d 2f3c eebd
00000310: 818b dc3d 45fa 713e 7831 60bd 84ec 013e
00000320: 37ac ac3d 761d c23d 3419 fe3d 43b0 40be
00000330: 4b9c 863d bb1a f43d f502 6ebd 3a68 5bbd
00000340: 7d7f f03d a85b cd3c 5fc6 a33a aa8f 7f3e
00000350: 8037 25be 28a6 c43d 7999 1fbe 9918 c0bd
00000360: 3a6a 583d ac8d 7e3d 57fd 2c3e 1621 5ebb
00000370: c11d c23d 6258 bfbc adf6 a53d 3ad7 e03c
00000380: 80a6 023e ed73 433d 06a9 ccbd a0aa 14be
00000390: aa0d 85be 2f5a 19be e2d1 14be 594a 87bd
000003a0: 4760 34be 3681 583e cf28 353c 1493 14bc
000003b0: 6c09 41be 4b39 e83d b23d d53c 140e 71be
000003c0: 62a6 0ebe 97b0 f83d 597b 83bd 55ac a7bd
000003d0: c77f 56bd d8dc 45be 0900 953d b239 3abe
000003e0: 051e 53be fdbc 993d 4da7 ef3d b600 693d
000003f0: 6a0d 1c3e 8f3d 09be 72fe 35bd 081d 4b3e

lstm.bias_ih_l0 f4 [256]
0.18063803 0.1655063 0.110074274 0.24907574 0.15960214 0.09800968 0.20992844 0.15610845
0.16239905 0.24484403 0.13536184 0.15915681 0.26099 0.21364146 0.2309008 0.14808139
0.27658552 0.09063633 0.12375234 0.0811111 0.09883535 0.17002481 0.2706377 0.2918545
0.07002493 0.024780368 0.07179009 0.21103579 0.21534503 0.07805339 0.21206641 0.35871893
0.2546601 0.2653721 0.22884871 0.16927885 0.20759316 0.07615866 0.26817346 0.10359602
0.27146038 0.20838515 0.22364157 0.1161415 0.29058367 0.053027365 0.22631913 0.24452339
0.090842806 0.27419415 0.27062064 0.25395894 0.06698425 0.045606237 0.17807311 0.108395025
0.26307878 0.18259592 0.28883472 0.30465215 0.12431924 0.22077724 0.23929311 0.24041627
-0.069664605 -0.269851 -0.16684835 -0.11939397 -0.25739947 -0.10049293 -0.19282617 -0.18333448
-0.24270466 -0.056872573 -0.05804562 -0.16290694 -0.12538457 -0.14626631 -0.23888886 -0.040536974
0.028524421 -0.2617196 -0.13275237 0.08002318 -0.14293545 0.01768823 -0.07132555 -0.078141
-0.14051986 -0.087255426 0.059914183 -0.1359299 -0.16583031 -0.20598401 -0.19382231 -0.21364819
-0.06431592 -0.18029414 -0.16372052 -0.18815602 -0.20286086 0.053596903 -0.03417575 -0.09756318
-0.03377077 -0.11035274 -0.105129346 -0.24467327 -0.06666625 -0.09968349 -0.06194052 -0.19746153
-0.095292926 -0.09533304 -0.055736836 -0.1727617 -0.32075915 -0.055448417 -0.16655898 -0.055072315
0.03403263 -0.12361906 -0.19204874 -0.052872155 -0.14845608 -0.13096067 -0.02640827 -0.044006426
-0.20524119 -0.12212637 0.14892489 -0.059281856 0.054550212 0.015840912 -0.22675478 0.20242402
0.07211108 0.12083778 0.09505982 -0.12048934 0.20277125 0.006472617 -0.11488412 -0.047930874
0.07631413 -0.0059139132 0.08881914 0.24366997 -0.12353167 0.15088336 -0.27702627 0.009819835
0.065075874 0.12132833 0.1477753 0.054745376 -0.0060746535 -0.050369784 0.17619023 0.23118727
-0.032684017 -0.0008467785 -0.22962132 -0.012140203 -0.11542621 -0.12588473 -0.14142953 -0.12395453
-0.039162293 0.18523552 0.023182753 0.12110473 -0.15355438 0.0750981 0.15365565 -0.10515615
-0.11062161 -0.013375583 -0.08296451 -0.11286784 -0.08900954 -0.07546349 0.009569047 -0.034838043
-0.24005456 0.093312494 0.18047963 0.07363567 0.07996142 -0.20216443 0.0103922235 0.15408106
0.24831049 0.28981984 0.11857182 0.30634472 0.33917168 0.15249947 0.12665907 0.2374712
0.103975065 0.24031052 0.26084274 0.1303511 0.21048413 0.25437763 0.11983022 0.22136384
0.13279234 0.10394243 0.3115968 0.053782094 0.16356517 0.17956467 0.24818647 0.10276594
0.20567027 0.1340021 0.03118894 0.16810246 0.058284782 0.23492517 0.31452614 0.30332083
0.23900132 0.3376677 0.28709635 0.24706061 0.12152184 0.28170478 0.33789852 0.13899915
0.25787094 0.19053914 0.29880637 0.26203132 0.28494528 0.18910146 0.10905697 0.13615221
0.25744045 0.27770898 0.10384189 0.104259945 0.17231931 0.08790027 0.20105426 0.12230306
0.23209162 0.2929047 0.2874285 0.14138146 0.24505025 0.18963113 0.22500603 0.19008414
00000000: 2df9 383e 7c7a 293e 9f6e e13d b60d 7f3e
00000010: be6e 233e 4db9 c83d 7bf7 563e e5da 1f3e
00000020: f04b 263e 65b8 7a3e 4b9c 0a3e 01fa 223e
00000030: 7ba0 853e d4c4 5a3e 4271 6c3e a6a2 173e
00000040: 9e9c 8d3e 8a9f b93d de71 fd3d 941d a63d
00000050: 306a ca3d fc1a 2e3e 0691 8a3e f46d 953e
00000060: 3b69 8f3d 3300 cb3c af06 933d c419 583e
00000070: 6883 5c3e 75da 9f3d f027 593e 02aa b73e
00000080: cf62 823e dade 873e 5157 6a3e 6f57 2d3e
00000090: 4d93 543e 12f9 9b3d 084e 893e 262a d43d
000000a0: dbfc 8a3e eb62 553e 4c02 653e 98db ed3d
000000b0: 62c7 943e 3933 593d 34c0 673e 5764 7a3e
000000c0: cb0b ba3d 2d63 8c3e ca8e 8a3e e806 823e
000000d0: 0a2f 893d 9bcd 3a3d cc58 363e 36fe dd3d
000000e0: 43b2 863e 6dfa 3a3e 25e2 933e 5efb 9b3e
000000f0: 169b fe3d 6e13 623e 4109 753e af2f 763e
00000100: 51ac 8ebd e929 8abe 4bda 2abe d384 f4bd
00000110: ddc9 83be 3dcf cdbd 3974 45be 09bc 3bbe
00000120: 9287 78be 37f3 68bd 3ec1 6dbd 14d1 26be
00000130: d064 00be d6c6 15be 489f 74be 190a 26bd
00000140: 0cac e93c 1d00 86be 3df0 07be 31e3 a33d
00000150: ac5d 12be e8e6 903c 2113 92bd 6308 a0bd
00000160: 70e4 0fbe f9b2 b2bd 9368 753d 3531 0bbe
00000170: 6ccf 29be 79ed 52be 5b79 46be 97c6 5abe
00000180: 11b8 83bd 079f 38be 5aa6 27be f9ab 40be
00000190: c2ba 4fbe 6d88 5b3d dffb 0bbd 34cf c7bd
000001a0: 3853 0abd 9e00 e2bd 0e4e d7bd a18b 7abe
000001b0: 5188 88bd dc26 ccbd 58b5 7dbd 5b33 4abe
000001c0: f028 c3bd f83d c3bd 4f4c 64bd 71e8 30be
000001d0: 8b3a a4be e11d 63bd 708e 2abe 8293 61bd
000001e0: cd65 0b3d fd2b fdbd 6da8 44be 7990 58bd
000001f0: df04 18be 8e1a 06be 2856 d8bc 1540 34bd
00000200: bf2a 52be 641d fabd c47f 183e 88d1 72bd
00000210: 0b70 5f3d cdc4 813c 6832 68be 3e48 4f3e
00000220: f9ae 933d cc79 f73d b9ae c23d 1dc3 f6bd
00000230: 44a3 4f3e 3f18 d43b 5e48 ebbd 2a53 44bd
00000240: 954a 9c3d 80c9 c1bb cfe6 b53d 9f84 793e
00000250: 2cfe fcbd 2b81 1a3e 63d6 8dbe 60e3 203c
00000260: 8046 853d fd7a f83d 6952 173e b03c 603d
00000270: e30d c7bb 8c50 4ebd 366b 343e 5bbc 6c3e
00000280: addf 05bd 58fa 5dba da21 6bbe b4e7 46bc
00000290: 9464 ecbd ede7 00be e7d2 10be dfdb fdbd
000002a0: a468 20bd 61ae 3d3e c2e9 bd3c c205 f83d
000002b0: 5c3d 1dbe 08cd 993d e857 1d3e 1c5c d7bd
000002c0: 958d e2bd 4325 5bbc 4ce9 a9bd 4127 e7bd
000002d0: a24a b6bd 9a8c 9abd 7ec7 1c3c 56b2 0ebd
000002e0: ddd0 75be 9f1a bf3d a7cf 383e 4cce 963d
000002f0: d0c2 a33d 3104 4fbe 2544 2a3c 6dc7 1d3e
00000300: 1b45 7e3e 4463 943e c8d5 f23d 37d9 9c3e
00000310: e9a7 ad3e d228 1c3e eab2 013e a62b 733e
00000320: e1f0 d43d f613 763e 2e8d 853e c27a 053e
00000330: 2789 573e c93d 823e 8c69 f53d 34ad 623e
00000340: b7fa 073e c5df d43d 9e89 9f3e 9d4a 5c3d
00000350: a17d 273e cddf 373e 9824 7e3e f376 d23d
00000360: 3a9b 523e d937 093e f37f ff3c 0d23 2c3e
00000370: 06bc 6e3d 3990 703e 9209 a13e de4c 9b3e
00000380: c3bc 743e c8e2 ac3e 4bfe 923e 75fd 7c3e
00000390: 71e0 f83d 9c3b 903e 0901 ad3e cb55 0e3e
000003a0: a907 843e b11c 433e 26fd 983e f828 863e
000003b0: 59e4 913e d0a3 413e 4359 df3d 7c6b 0b3e
000003c0: 3ccf 833e df2f 8e3e 0fab d43d 3d86 d53d
000003d0: 7974 303e 0f05 b43d 2be1 4d3e 077a fa3d
000003e0: 6da9 6d3e 9bf7 953e d429 933e 4dc6 103e
000003f0: 74ee 7a3e aa2e 423e fb67 663e 6ba5 423e

lstm.bias_hh_l0 f4 [256]
0.19960411 0.23162203 0.1740408 0.26146686 0.115343645 0.17172198 0.16880652 0.18906823
0.1736991 0.2349443 0.32366693 0.18016827 0.19864027 0.18496393 0.090770595 0.29407924
0.28079662 0.13911861 0.33884534 0.12803659 0.23581955 0.11294864 0.16777569 0.25265083
0.12443712 0.076479234 0.116165124 0.17374094 0.26214814 0.2513475 0.118043385 0.29234105
0.17612624 0.14813681 0.22460671 0.11912696 0.18641803 0.28202486 0.14333476 0.039635777
0.17415401 0.08907043 0.08558202 0.26239184 0.20585279 0.09394469 0.08450154 0.21654369
0.08726496 0.11208914 0.15856645 0.18312275 0.0876692 0.17975871 0.21584792 0.16411561
0.24986427 0.25983095 0.28936666 0.15621725 0.21330503 0.31018665 0.18999098 0.25590175
-0.058624234 -0.09430265 -0.111042246 -0.052661065 -0.25550002 -0.08556643 -0.22167115 -0.13616297
-0.14951539 -0.2161913 -0.08219241 -0.110998355 -0.13920279 -0.20004955 -0.1854854 -0.116634086
-0.09826941 -0.19147642 -0.07882125 0.02893476 -0.0774076 -0.07363182 -0.12436714 -0.25094184
-0.22257295 -0.2801542 0.050710928 -0.14367475 0.005459574 -0.19978233 -0.10732883 -0.23531196
-0.2735246 -0.29730454 -0.19991143 -0.23475772 -0.12155594 -0.12388978 -0.04015967 -0.2046655
-0.043394133 -0.053797435 -0.035283096 -0.18388078 -0.15098931 -0.18635744 -0.07911035 -0.23871723
-0.23353665 -0.1495136 0.027938653 -0.18183272 -0.14278963 -0.05599968 -0.123449154 0.022486595
-0.05852685 -0.21892609 -0.14738427 -0.050901685 -0.24542935 -0.008440606 -0.14023224 -0.12023755
-0.0701195 -0.10196951 0.1956522 -0.1474614 0.071541175 0.18694012 0.005906691 0.17101736
0.21262829 0.1431664 0.19844222 -0.006712197 0.023130795 0.12674671 -0.03404085 -0.17149375
0.2002135 0.05681826 0.041375943 0.1674259 -0.108008206 0.0835454 -0.07987749 -0.046733163
0.16047174 0.17539038 0.09447757 -0.16902678 0.08314546 0.010741505 0.19044271 0.17760447
0.019612128 -0.034685854 -0.14866537 -0.12812303 -0.1629574 -0.1946372 -0.116590336 0.026256675
-0.05630243 0.16868326 0.14157751 -0.04085188 -0.024967559 0.03527978 0.023790967 -0.19511278
-0.08503798 -0.026905367 -0.07834463 -0.123977914 -0.021538304 -0.046427887 0.12927029 -0.023971261
-0.07955716 -0.02220172 0.017328577 -0.11254756 0.038380533 -0.22053897 -0.013549565 0.028461726
0.15207717 0.29594705 0.1434879 0.30667862 0.19693764 0.3007842 0.27605584 0.05826962
0.30522722 0.22755738 0.16809374 0.25606763 0.13111411 0.11960594 0.101802565 0.10428266
0.1507242 0.26731354 0.11404287 0.14843473 0.31300175 0.1262466 0.27525562 0.17125572
0.09126966 0.08379617 0.21774445 0.31604734 0.25282982 0.13800457 0.25893688 0.22329019
0.09610673 0.17761077 0.12546676 0.06344793 0.23051313 0.16535652 0.19210076 0.23390828
0.16231816 0.2291641 0.20949033 0.33803463 0.183717 0.2417156 0.16242073 0.08774234
0.07485576 0.23029158 0.16480754 0.06707659 0.15058607 0.07708432 0.13256499 0.23357934
0.14603537 0.32747114 0.12964454 0.2528313 0.26731238 0.22846691 0.15171473 0.11873502
00000000: 0565 4c3e 532e 6d3e c037 323e fcde 853e
00000010: 4a39 ec3d e3d7 2f3e 9edb 2c3e 1a9b 413e
00000020: 2dde 313e 3d95 703e acb7 a53e 087e 383e
00000030: 5b68 4b3e 2f67 3d3e efe5 b93d 8e91 963e
00000040: 93c4 8f3e 1c75 0e3e 237d ad3e 061c 033e
00000050: ae7a 713e 9e51 e73d 64cd 2b3e 735b 813e
00000060: e4d8 fe3d 25a1 9c3d fbe7 ed3d 25e9 313e
00000070: 4838 863e 9fb0 803e bbc0 f13d baad 953e
00000080: 705a 343e 2db1 173e 4dff 653e d6f8 f33d
00000090: 5ee4 3e3e 9065 903e 59c6 123e 2059 223d
000000a0: 6e55 323e 8f6a b63d a045 af3d 3958 863e
000000b0: 13cb 523e 1366 c03d 250f ad3d a1bd 5d3e
000000c0: f9b7 b23d fe8e e53d 3e5f 223e 8884 3b3e
000000d0: e98b b33d ab12 383e 3d07 5d3e ec0d 283e
000000e0: 6bdc 7f3e 9008 853e de27 943e 6af7 1f3e
000000f0: a26c 5a3e c9d0 9e3e ff8c 423e 8e05 833e
00000100: f71f 70bd bf21 c1bd 1e6a e3bd 21b3 57bd
00000110: e6d0 82be 743d afbd c3fd 62be 4e6e 0bbe
00000120: 901a 19be 4161 5dbe 7f54 a8bd 1b53 e3bd
00000130: 2d8b 0ebe cad9 4cbe e2ef 3dbe dadd eebd
00000140: 7941 c9bd 6512 44be 096d a1bd 9708 ed3c
00000150: e087 9ebd 48cc 96bd 33b4 febd 737b 80be
00000160: 2aea 63be 5f70 8fbe 43b6 4f3d 791f 13be
00000170: 3ae6 b23b bd93 4cbe 38cf dbbd 9ef5 70be
00000180: 6b0b 8cbe 4d38 98be 95b5 4cbe 5464 70be
00000190: 52f2 f8bd edb9 fdbd 777e 24bd d593 51be
000001a0: 0cbe 31bd b35a 5cbd 0285 10bd 3e4b 3cbe
000001b0: f19c 1abe 7cd4 3ebe 9b04 a2bd 4a72 74be
000001c0: 3b24 6fbe 181a 19be 9adf e43c 5b32 3abe
000001d0: 7237 12be ec5f 65bd e9d2 fcbd cf35 b83c
000001e0: dab9 6fbd 292e 60be e7eb 16be 497e 50bd
000001f0: d551 7bbe 784a 0abc 0a99 0fbe 1b3f f6bd
00000200: d09a 8fbd 64d5 d0bd 0d59 483e 1f00 17be
00000210: 2e84 923d 3b6d 3f3e ea8c c13b 2d1f 2f3e
00000220: 3bbb 593e 369a 123e 7034 4b3e fdf1 dbbb
00000230: cb7c bd3c e4c9 013e 6b6e 0bbd 0f9c 2fbe
00000240: c504 4d3e 44ba 683d d279 293d b271 2b3e
00000250: 6833 ddbd da19 ab3d cf96 a3bd 466b 3fbd
00000260: b452 243e 8999 333e 757d c13d 5b15 2dbe
00000270: 2b48 aa3d 23fd 2f3c 6a03 433e f2dd 353e
00000280: 9da9 a03c c112 0ebd bc3b 18be af32 03be
00000290: 4ede 26be f94e 47be eac6 eebd 3d18 d73c
000002a0: 609d 66bd 4ebb 2c3e b2f9 103e 4d54 27bd
000002b0: c488 ccbc 8881 103d 46e5 c23c a5cb 47be
000002c0: 6428 aebd a568 dcbc 2673 a0bd 22e8 fdbd
000002d0: 1971 b0bc 2b2b 3ebd 6e5f 043e 615f c4bc
000002e0: ddee a2bd 62e0 b5bc a9f4 8d3c 567f e6bd
000002f0: e834 1d3d f8d4 61be fffe 5dbc 9128 e93c
00000300: 1eba 1b3e 5f86 973e 7eee 123e fb04 9d3e
00000310: 05aa 493e 6300 9a3e 3157 8d3e 20ac 6e3d
00000320: be46 9c3e cd04 693e c420 2c3e 4c1b 833e
00000330: c742 063e f6f3 f43d dd7d d03d 2692 d53d
00000340: 7257 1a3e 52dd 883e 4f8f e93d 46ff 173e
00000350: c441 a03e ca46 013e 4eee 8c3e a95d 2f3e
00000360: 96eb ba3d 549d ab3d 67f8 5e3e f5d0 a13e
00000370: e972 813e 1251 0d3e 6093 843e 2fa6 643e
00000380: 9bd3 c43d 99df 353e 5c7a 003e fdf0 813d
00000390: a20b 6c3e 3853 293e 10b6 443e a785 6f3e
000003a0: bb36 263e fea9 6a3e a284 563e e012 ad3e
000003b0: 4f20 3c3e 4b84 773e 9f51 263e 42b2 b33d
000003c0: fa4d 993d 8ed1 6b3e 4fc3 283e 745f 893d
000003d0: 3c33 1a3e 62de 9d3d 1ebf 073e 6c2f 6f3e
000003e0: 4c8a 153e 4caa a73e 8ac1 043e 1b73 813e
000003f0: 2bdd 883e 3bf3 693e 1b5b 1b3e 592b f33d

lstm.weight_ih_l0_reverse f4 [256, 128]
-0.06609346 -0.014984058 -0.05583607 0.045874573 0.07290524 0.058608558 0.028968552 0.11563408
-0.076646514 0.045328658 0.06422205 0.03747154 -0.06176323 -0.07880725 0.031205177 0.038412172
0.0535477 0.15918021 0.020773761 -0.09336281 -0.17127752 0.08472966 0.09195428 -0.034784373
0.028525883 0.047628097 -0.081942126 0.09170502 0.053935535 -0.042157624 0.057357658 -0.037349783
-0.07650392 0.0761176 -0.032835413 0.16315815 -0.13274746 -0.11417236 -0.034348287 0.01955421
0.031168941 -0.020214142 0.0049457476 -0.06761105 -0.041604847 0.070244476 -0.07937222 -0.024062486
0.07125311 0.13969894 -0.010682207 -0.053161222 -0.0039824704 0.049038053 0.09112028 0.027947301
-0.112117395 -0.046045214 0.07048735 -0.031018425 0.063248694 -0.029010944 -0.038006257 0.018397579
-0.061979912 0.031793345 0.09087748 -0.07023754 0.02242158 0.068033375 0.07966722 0.061432414
0.1330894 0.037257362 -0.11359882 0.054631643 0.13536069 0.048051644 -0.028885426 -0.0028293696
0.009468695 0.014593984 -0.07208714 0.030914549 -0.042947616 -0.07190458 0.026419032 0.033184264
-0.07146927 -0.06567815 0.05135138 0.032320607 0.04843189 0.02956157 -0.054787133 -0.026526425
0.05671924 0.051248733 -0.028059205 -0.030468276 0.06605183 0.0650153 0.05985817 -0.019646231
0.10015544 0.06879658 0.07590708 -0.024649402 0.06317032 -0.012864083 0.108739 0.05278382
-0.12874319 0.12374459 0.10193308 0.06802016 -0.032087673 0.12221421 -0.13452819 -0.021804744
-0.030622983 0.092003986 0.050461546 0.13998973 -0.019730652 0.011687876 -0.025040135 -0.059158236
-0.074355245 -0.014311118 0.048891272 0.11325965 -0.04999151 0.08192172 -0.15846385 0.12130472
-0.09441748 0.006523521 0.12885396 0.049267735 -0.017404212 -0.03529898 0.045287944 0.022949608
-0.05579203 0.14165436 -0.12716378 0.023958322 -0.004827653 -0.036680818 0.11297569 0.015306234
-0.09009351 -0.03170771 -0.050282374 0.105005406 0.019333677 -0.16152483 -0.018668165 -0.0696013
-0.052230578 0.047760032 -0.0060412246 0.12258486 0.029132858 0.041781627 0.078869306 0.010521819
-0.09064405 -0.042599533 -0.032906562 0.050914228 0.052367505 -0.055552285 0.041251507 0.01014359
-0.057698254 -0.008272793 0.07099134 0.0011662161 -0.14165592 0.028385676 -0.023395218 0.067935966
-0.0886433 0.043126233 -0.051684838 -0.04096189 -0.030062092 0.07992171 -0.07929032 -0.027671931
0.11135999 0.019969558 -0.0818179 -0.024927843 0.04904201 -0.100120425 0.010863438 0.042097416
0.12207206 0.011230208 0.028375423 0.0072783525 0.15495118 0.08383524 0.05855483 -0.048230886
0.07826133 -0.0125537 0.012213274 -0.06773006 -0.008353362 0.033332586 0.073101126 0.045777556
-0.041869327 0.11457314 0.1355253 -0.0079243835 -0.082476966 0.01616614 -0.060611017 -0.108601585
0.04513031 -0.0017988075 -0.09471415 0.021949254 0.106934845 -0.025264878 -0.056915347 0.0040904717
0.0033280046 0.013267869 -0.029248696 0.062115222 0.062650464 0.015794028 0.052009374 0.06885744
0.042407747 -0.035662785 -0.040492017 -0.058984518 0.0066448185 -0.04626674 -0.12289738 -0.06323344
0.050114147 -0.0735138 -0.05370064 -0.018559769 0.0674104 -0.086421505 -0.050498847 -0.09850584
00000000: 025c 87bd b27f 75bc 5db4 64bd fae6 3b3d
00000010: 584f 953d 870f 703d 754f ed3c 8fd1 ec3d
00000020: d9f8 9cbd 8baa 393d da86 833d c27b 193d
00000030: 71fb 7cbd b265 a1bd 00a2 ff3c 1556 1d3d
00000040: d554 5b3d 2300 233e bc2d aa3c 0035 bfbd
00000050: 6063 2fbe be86 ad3d 8752 bc3d 0f7a 0ebd
00000060: 1daf e93c ae15 433d 46d1 a7bd d7cf bb3d
00000070: 82eb 5c3d 79ad 2cbd ddef 6a3d 16fc 18bd
00000080: 16ae 9cbd 8be3 9b3d 6d7e 06bd ee12 273e
00000090: f3ee 07be 33d3 e9bd cab0 0cbd 2730 a03c
000000a0: 0256 ff3c 2198 a5bc f00f a23b aa77 8abd
000000b0: d869 2abd 56dc 8f3d e78d a2bd b11e c5bc
000000c0: 27ed 913d 3d0d 0f3e 6c04 2fbc 95bf 59bd
000000d0: 627f 82bb 20dc 483d 459d ba3d bdf1 e43c
000000e0: ce9d e5bd e899 3cbd ac5b 903d 5a1a febc
000000f0: 8888 813d 5ca8 edbc 73ac 1bbd 85b6 963c
00000100: a6de 7dbd bd39 023d f91d ba3d b3d8 8fbd
00000110: 76ad b73c 1555 8b3d 9128 a33d 8ea0 7b3d
00000120: 9648 083e 2d9b 183d 80a6 e8bd 6ec5 5f3d
00000130: fe9b 0a3e cdd1 443d 21a1 ecbc f26c 39bb
00000140: 9622 1b3c 9b1b 6f3c 6ca2 93bd 8240 fd3c
00000150: d7e9 2fbd b542 93bd ba6c d83c 39ec 073d
00000160: 7b5e 92bd 4482 86bd d355 523d 9d62 043d
00000170: 8460 463d 1b2b f23c 7968 60bd f24d d9bc
00000180: 6f52 683d 31ea 513d 6bdc e5bc 9b98 f9bc
00000190: 2f46 873d be26 853d d72d 753d 22f1 a0bc
000001a0: 4c1e cd3d 39e5 8c3d 2c75 9b3d 8bed c9bc
000001b0: 715f 813d e0c3 52bc 8eb2 de3d d933 583d
000001c0: 41d5 03be ce6d fd3d 4ac2 d03d 274e 8b3d
000001d0: 5d6e 03bd 724b fa3d c2c1 09be dd9f b2bc
000001e0: 0ddd fabc 966c bc3d c4b0 4e3d 7859 0f3e
000001f0: 2da2 a1bc 817e 3f3c f820 cdbc e84f 72bd
00000200: 9047 98bd 2e79 6abc 3742 483d adf4 e73d
00000210: e6c3 4cbd 93c6 a73d 5944 22be 9c6e f83d
00000220: f45d c1bd 43c3 d53b 4bf2 033e f7cc 493d
00000230: 4793 8ebc aa95 10bd da7f 393d d100 bc3c
00000240: 2f86 64bd d70d 113e 3937 02be 3e44 c43c
00000250: 4a31 9ebb a03e 16bd cc5f e73d 00c7 7a3c
00000260: f282 b8bd f2df 01bd e4f4 4dbd 130d d73d
00000270: a961 9e3c c466 25be fbed 98bc 208b 8ebd
00000280: bbef 55bd 06a0 433d 77f5 c5bb c50d fb3d
00000290: 08a8 ee3c 3623 2b3d 3b86 a13d b563 2c3c
000002a0: 96a3 b9bd d97c 2ebd 08c9 06bd 708b 503d
000002b0: 4f7f 563d cb8a 63bd 57f7 283d 4d31 263c
000002c0: 0155 6cbd 9c8a 07bc e863 913d b8db 983a
000002d0: 400e 11be 1489 e83c 54a7 bfbc 0322 8b3d
000002e0: 9e8a b5bd 22a5 303d 7bb3 53bd a8c7 27bd
000002f0: c744 f6bc fead a33d f762 a2bd 3fb0 e2bc
00000300: b510 e43d 3397 a33c 2590 a7bd 7a35 ccbc
00000310: 46e0 483d f00b cdbd 90fc 313c 576e 2c3d
00000320: eb00 fa3d e8fe 373c 9373 e83c 3f7f ee3b
00000330: 86ab 1e3e cfb1 ab3d 30d7 6f3d c08d 45bd
00000340: 7a47 a03d 09ae 4dbc 2f1a 483c 0fb6 8abd
00000350: 8adc 08bc c087 083d 0bb6 953d 3f81 3b3d
00000360: 2c7f 2bbd 53a5 ea3d 25c7 0a3e 46d5 01bc
00000370: afe9 a8bd da6e 843c 4243 78bd 826a debd
00000380: 8fda 383d f7c5 ebba 7ef9 c1bd ecce b33c
00000390: a800 db3d 4af8 cebc 1120 69bd 5d09 863b
000003a0: a71a 5a3b 7a61 593c f69a efbc 886c 7e3d
000003b0: e34e 803d 7a62 813c c807 553d 2105 8d3d
000003c0: bfb3 2d3d 2413 12bd f5da 25bd c099 71bd
000003d0: c7bc d93b 3182 3dbd 9fb1 fbbd 8980 81bd
000003e0: 7e44 4d3d 678e 96bd 34f5 5bbd a80a 98bc
000003f0: 770e 8a3d c2fd b0bd e1d7 4ebd 6ebd c9bd

lstm.weight_hh_l0_reverse f4 [256, 64]
-0.09140102 0.056138173 0.06237059 -0.11136913 0.0063413875 0.0054464755 -0.2520858 -0.18739969
-0.037594736 0.16884524 0.22179033 -0.020440137 0.12967226 -0.19448735 -0.11209889 0.02870004
-0.13942339 -0.07944161 0.17022967 -0.18192735 -0.047651533 -0.028067 -0.11423214 -0.06210335
-0.15339337 -0.11671746 -0.16336621 0.056930747 0.23325706 0.060795527 -0.23149246 0.11944617
0.11665772 -0.021949908 0.15832078 0.044251494 -0.15345062 -0.17080183 -0.20065399 -0.14796868
-0.15158041 0.15378946 0.13832465 -0.08050336 0.10673697 -0.1689808 -0.13838132 0.007553263
-0.082770094 -0.14422783 -0.061037675 -0.21099754 0.20592514 0.20651585 -0.18659332 -0.11032906
-0.1066589 -0.09828226 0.12429627 -0.08504526 0.079449564 0.19093964 -0.10867317 -0.03335493
-0.029043976 -0.044122756 0.15722187 -0.15842499 0.004922589 0.18140532 -0.105607465 -0.037348565
-0.06511132 0.13623711 0.21840553 0.06775294 0.104745686 -0.15800396 -0.032822195 0.14609955
-0.030153152 -0.17348504 0.057561226 -0.2554149 -0.10615282 0.15227778 -0.1260755 -0.016580485
-0.13462417 -0.25560704 -0.08889856 0.133191 0.010613293 0.0010863977 -0.17169058 0.24346696
0.06316553 0.004123041 -0.023996072 0.060587164 -0.10660197 0.01477299 -0.006177995 -0.20356154
-0.06793622 -0.02004271 0.09788279 -0.1685023 0.18886484 -0.122152515 -0.05001021 0.045272812
-0.07227969 0.08359574 -0.05900057 -0.04502353 0.12549728 0.17928994 -0.117147505 -0.028182618
0.040229008 -0.1777126 0.0072895964 -0.10835543 0.0017094575 0.17553839 -0.052624084 -0.06310786
0.16456862 -0.1969162 0.20389092 -0.19697854 0.21389718 0.18705644 -0.20058972 -0.02788928
-0.09935913 0.10454776 0.10985597 0.09409624 0.21782343 -0.031931054 -0.092056215 0.04162218
-0.18239017 -0.11067712 0.050691646 -0.22756179 -0.0701286 -0.01946804 -0.18886758 -0.20824857
-0.07763846 -0.24577306 -0.12259784 -0.0017072493 0.14524224 0.00099215 -0.09497647 -0.020636508
0.023532422 -0.17468175 0.06649279 0.020863295 0.18349646 -0.013262799 -0.14056703 -0.20058541
0.11195719 0.08975185 0.08268811 -0.009214527 0.10251789 -0.09926122 0.020292424 -0.19829276
-0.30256876 0.18574077 -0.13102661 0.06471009 0.052307773 0.013500269 -0.070395276 -0.18425041
-0.2634047 0.052757896 0.03231027 -0.08817725 -0.05373409 0.2411837 -0.015299405 -0.15310387
0.017755661 0.033713505 0.098810375 0.052212697 0.18365051 0.026923439 -0.10232049 -0.14380017
-0.18819028 0.045694668 0.013711365 0.059631627 0.042888038 -0.20890424 -0.13034467 -0.15781228
-0.11610527 -0.10309207 0.20811658 -0.16876566 -0.07896974 0.111332014 -0.13509853 -0.26677606
-0.1537322 -0.11865344 0.008959287 0.15869054 0.03370322 0.111843705 -0.20436531 0.13078292
0.27410546 -0.1720846 0.10361061 0.020583332 -0.080413155 -0.023923408 -0.1268074 -0.1579597
-0.15619507 0.024165144 0.18376662 -0.04770317 0.13558601 -0.080817744 -0.031378914 0.045240305
-0.19021423 0.11222547 -0.07621782 -0.20685156 0.0866814 0.11744929 -0.024668597 -0.047027517
-0.12352637 0.009217048 0.07264726 -0.14157294 -0.018029867 0.029856054 -0.14714402 -0.21584974
00000000: 7530 bbbd 24f1 653d 4e78 7f3d 8015 e4bd
00000010: 6acb cf3b 5978 b23b 6411 81be b4e5 3fbe
00000020: f0fc 19bd c4e5 2c3e 011d 633e 1372 a7bc
00000030: cec8 043e b127 47be 1a94 e5bd 591c eb3c
00000040: 01c5 0ebe 48b2 a2bd b050 2e3e 2a4b 3abe
00000050: 412e 43bd c4ec e5bc 8af2 e9bd 1560 7ebd
00000060: 2713 1dbe 9009 efbd 7949 27be 3730 693d
00000070: f0da 6e3e bb04 793d 5c0c 6dbe 32a0 f43d
00000080: 3eea ee3d 4bd0 b3bc d81e 223e 0e41 353d
00000090: 2922 1dbe ade6 2ebe 3d78 4dbe 1a85 17be
000000a0: e537 1bbe fc7a 1d3e faa4 0d3e f2de a4bd
000000b0: ea98 da3d 4e09 2dbe d5b3 0dbe 5d81 f73b
000000c0: 5e83 a9bd 76b0 13be a402 7abd bd0f 58be
000000d0: 0ade 523e e478 533e 5212 3fbe 34f4 e1bd
000000e0: fb6f dabd 3648 c9bd 0b8f fe3d 362c aebd
000000f0: 74b6 a23d ae85 433e 0a90 debd 2e9f 08bd
00000100: a2ed edbc 10ba 34bd c5fe 203e 293a 22be
00000110: ab4d a13b 51c2 393e ba48 d8bd cffa 18bd
00000120: 1559 85bd be81 0b3e b3a5 5f3e 0ec2 8a3d
00000130: e884 d63d cacb 21be 9170 06bd 1f9b 153e
00000140: be03 f7bc 10a6 31be 52c5 6b3d bec5 82be
00000150: a666 d9bd b5ee 1b3e f019 01be ccd3 87bc
00000160: ebda 09be edde 82be 7310 b6bd 3963 083e
00000170: 61e3 2d3c 7565 8e3a a8cf 2fbe 674f 793e
00000180: ee5c 813d 931a 873b 6993 c4bc 3f2a 783d
00000190: 2252 dabd 690a 723c c770 cabb 7072 50be
000001a0: 2522 8bbd 9c30 a4bc c676 c83d de8b 2cbe
000001b0: c965 413e 192b fabd 82d7 4cbd fc6f 393d
000001c0: 6007 94bd 3e34 ab3d 95aa 71bd 986a 38bd
000001d0: 5c82 003e c897 373e 08eb efbd 3cdf e6bc
000001e0: 2cc7 243d 4bfa 35be 91dd ee3b 74e9 ddbd
000001f0: e00f e03a 56c0 333e 5a8c 57bd b23e 81bd
00000200: ad84 283e 66a4 49be c8c8 503e beb4 49be
00000210: dd07 5b3e b98b 3f3e 6467 4dbe 0f78 e4bc
00000220: cd7c cbbd 231d d63d 2bfc e03d 88b5 c03d
00000230: 1b0d 5f3e 23ca 02bd f887 bcbd 057c 2a3d
00000240: 7dc4 3abe b0aa e2bd 0ba2 4f3d f505 69be
00000250: 959f 8fbd 707b 9fbc 8166 41be 1d3f 55be
00000260: ea00 9fbd efab 7bbe 9414 fbbd c8c5 dfba
00000270: 62ba 143e 080b 823a 0683 c2bd e50d a9bc
00000280: 11c7 c03c c6df 32be 5f2d 883d 80e9 aa3c
00000290: 7fe6 3b3e 364c 59bc cef0 0fbe 4366 4dbe
000002a0: d049 e53d d1cf b73d 6258 a93d 87f8 16bc
000002b0: e6f4 d13d 7749 cbbd 4c3c a63c 420d 4bbe
000002c0: 4bea 9abe d432 3e3e d72b 06be b986 843d
000002d0: ad40 563d 3b30 5d3c 662b 90bd 24ac 3cbe
000002e0: fbdc 86be aa18 583d c657 043d 4696 b4bd
000002f0: 4718 5cbd dcf8 763e 5baa 7abc 43c7 1cbe
00000300: 5274 913c 2c17 0a3d 185d ca3d fbdc 553d
00000310: e10e 3c3e 8b8e dc3c 688d d1bd 5a40 13be
00000320: f4b4 40be 552a 3b3d a2a5 603c 4b40 743d
00000330: 5eab 2f3d feea 55be 1379 05be 8b99 21be
00000340: 9ac8 edbd ef21 d3bd 831c 553e e8d0 2cbe
00000350: e3ba a1bd 0a02 e43d 4557 0abe df96 88be
00000360: f96b 1dbe 9300 f3bd f9c9 123c c67f 223e
00000370: 630c 0a3d 500e e53d 2445 51be f5eb 053e
00000380: 8d57 8c3e f236 30be cd31 d43d 609e a83c
00000390: a7af a4bd 06fb c3bc cdd9 01be 30c0 21be
000003a0: 9af1 1fbe fbf5 c53c 512d 3c3e 6664 43bd
000003b0: 0fd7 0a3e c683 a5bd 2d87 00bd e64d 393d
000003c0: 85c7 42be 78d6 e53d 1718 9cbd e5d0 53be
000003d0: 0586 b13d 4189 f03d cc15 cabc ed9f 40bd
000003e0: 65fb fcbd 1a03 173c 16c8 943d 7ff8 10be
000003f0: 5fb3 93bc af94 f43c ecac 16be b707 5dbe

lstm.bias_ih_l0_reverse f4 [256]
0.09307264 0.16946982 0.2114495 0.07142347 0.23595862 0.05380737 0.10314397 0.2706065
0.20457833 0.20314322 0.036746554 0.18559374 0.20675004 0.120965645 0.15652859 0.12719062
0.14682381 0.2605317 0.136555 0.3385592 0.18681367 0.04527543 0.17181179 0.21732289
0.14324619 0.2930608 0.15495962 0.18925287 0.047504887 0.25009936 0.26968476 0.14779283
0.24083929 0.123922765 0.17976388 0.20070505 0.09797461 0.10279142 0.2963702 0.13129401
0.06701313 0.07030557 0.24478126 0.09071416 0.2564863 0.046136998 0.02595988 0.23901732
0.23272555 0.008797688 0.08209448 0.087041065 0.103506885 0.04279183 0.21330966 0.14832844
0.23604666 0.11383688 0.008979784 0.042083308 0.11690216 0.12613356 0.095469154 0.12923715
0.09441301 0.09803658 0.07029963 0.001564594 0.11103602 -0.05256099 -0.06775583 0.1297287
0.053515524 -0.014979919 -0.051591314 0.040253244 -0.01902425 0.008685966 -0.08332376 -0.051709224
0.13402955 -0.12230847 0.03281957 0.1387183 -0.19711627 -0.10311391 -0.029400446 0.011113009
0.10415773 -0.12065677 -0.06004937 -0.017232442 0.06999233 0.03759793 0.060341757 -0.0030218773
0.04493447 0.081397735 0.0780713 -0.081169665 -0.08025085 0.059313312 0.033403248 -0.045073774
0.10638621 0.12202893 0.07377282 0.034070693 0.036146984 -0.076898895 0.0868651 -0.14647165
0.09170196 -0.041045964 0.031269845 -0.036996786 0.025018197 0.025965681 0.07076932 -0.016232789
-0.11703786 0.10636294 0.071151644 -0.10666608 0.041463744 0.091480926 0.03505357 0.058025397
-0.14806938 0.042838763 0.1588675 -0.15059413 0.20293356 0.064313136 -0.23403628 -0.24705428
-0.24127217 0.27128303 0.19153716 -0.16215612 0.29953253 -0.25072166 -0.17072678 0.09445923
-0.18799376 -0.24132812 0.16565897 -0.26521778 -0.041442435 0.112571694 -0.2893269 -0.24995264
-0.09549545 -0.31655794 -0.15405934 0.25376844 0.051388428 0.25533947 -0.16111031 0.06553231
0.22973126 -0.18430305 0.1844117 0.18051116 -0.030191513 -0.0012823074 -0.2380935 -0.08739359
-0.19186875 0.203209 0.30299526 -0.087456696 0.10368819 -0.14774479 -0.011445216 -0.07027375
-0.2846237 0.051923208 0.02326981 -0.16214922 0.03860463 0.012264634 -0.036811214 0.07696844
0.06215652 -0.06462824 0.17690581 -0.21730024 -0.0028173157 0.25632438 -0.23107342 -0.121474035
0.14146934 0.0345086 0.29115888 0.09045207 0.22862905 -0.0027954606 0.14006893 0.24249128
0.23735215 0.25775924 -0.02637901 0.23241396 0.19622242 0.11127008 0.27568048 0.036523316
0.061542004 0.12011944 0.17908591 0.32940033 0.08288043 0.11735892 0.14551911 0.007473066
0.15994175 0.22373351 0.07180833 0.09800213 0.04486439 0.22286172 0.14349237 0.15870364
0.39716232 0.014318151 0.15721755 0.19582836 0.030204158 0.112232074 0.066039994 0.169813
0.16778494 0.04442512 0.133217 0.16991176 0.068432316 0.12235272 0.1612189 0.118603684
0.27845895 0.08957707 0.11142706 0.16493012 0.016198408 0.12021817 0.033937033 0.04460987
0.0039159874 0.20950593 0.08889845 0.20277655 0.009001732 0.14634259 -0.0033000018 0.15623948
00000000: de9c be3d 7f89 2d3e 3886 583e 7846 923d
00000010: 239f 713e 1e65 5c3d 253d d33d ef8c 8a3e
00000020: fb7c 513e c704 503e 8e83 163d 490c 3e3e
00000030: 48b6 533e d6bc f73d 0849 203e 423e 023e
00000040: fb58 163e 6964 853e 13d5 0b3e a257 ad3e
00000050: 154c 3f3e bb72 393d 6eef 2f3e e489 5e3e
00000060: 21af 123e 110c 963e bcad 1e3e 81cb 413e
00000070: 7c94 423d 060d 803e 1f14 8a3e 0157 173e
00000080: 939e 763e 38cb fd3d 0614 383e a085 4d3e
00000090: eaa6 c83d 4f84 d23d d6bd 973e f071 063e
000000a0: 2e3e 893d 5efc 8f3d f0a7 7a3e 58c8 b93d
000000b0: 2c52 833e 26fa 3c3d d0a9 d43c f5c0 743e
000000c0: 9b4f 6e3e 2e24 103c 2721 a83d 9642 b23d
000000d0: 6bfb d33d 7c46 2f3d d96d 5a3e 69e3 173e
000000e0: 37b6 713e 4f23 e93d f21f 133c 8c5f 2c3d
000000f0: 666a ef3d 2829 013e 5585 c33d be56 043e
00000100: 9c5b c13d 67c7 c83d 41f9 8f3d 1013 cd3a
00000110: da66 e33d 314a 57bd 92c3 8abd 9ad7 043e
00000120: 1833 5b3d 566e 75bc 6a51 53bd 96e0 243d
00000130: bed8 9bbc 954f 0e3c a6a5 aabd 0dcd 53bd
00000140: 0b3f 093e dd7c fabd d06d 063d 2c0c 0e3e
00000150: d9d8 49be 632d d3bd 34d9 f0bc 5713 363c
00000160: a650 d53d e61a f7bd 54f6 75bd 0d2b 8dbc
00000170: 2458 8f3d 4900 1a3d eb28 773d b00a 46bb
00000180: 350d 383d dbb3 a63d d9e3 9f3d 483c a6bd
00000190: 8f5a a4bd 84f2 723d d8d1 083d 479f 38bd
000001a0: 03e1 d93d 4eea f93d 3416 973d b68d 0b3d
000001b0: dc0e 143d 2b7d 9dbd 54e6 b13d aafc 15be
000001c0: 3dce bb3d d01f 28bd cf14 003d f189 17bd
000001d0: f6f2 cc3c fbb5 d43c 81ef 903d a0fa 84bc
000001e0: 8cb1 efbd d0d4 d93d f4b7 913d bf73 dabd
000001f0: e3d5 293d 5a5a bb3d 5594 0f3d 0aac 6d3d
00000200: 809f 17be b377 2f3d 29ae 223e 5935 1abe
00000210: d1cd 4f3e 9bb6 833d 35a7 6fbe ccfb 7cbe
00000220: 0d10 77be 9ce5 8a3e 5122 443e 410c 26be
00000230: 545c 993e 975e 80be 00d3 2ebe d773 c13d
00000240: 7081 40be b81e 77be 81a2 293e a0ca 87be
00000250: 8bbf 29bd fd8b e63d a822 94be 96f3 7fbe
00000260: 1e93 c3bd e213 a2be bbc1 1dbe f0ed 813e
00000270: ac7c 523d dbbb 823e 1afa 24be ce35 863d
00000280: ac3e 6b3e f0b9 3cbe 6cd6 3c3e ebd7 383e
00000290: 3154 f7bc 1913 a8ba c8ce 73be 69fb b2bd
000002a0: 3e79 44be 0516 503e 3222 9b3e 7f1c b3bd
000002b0: 795a d43d 694a 17be b784 3bbc afeb 8fbd
000002c0: 33ba 91be 6ead 543d 54a0 be3c 720a 26be
000002d0: e31f 1e3d 9af1 483c 5bc7 16bd a1a1 9d3d
000002e0: d697 7e3d d05b 84bd cc26 353e f483 5ebe
000002f0: b7a2 38bb f33c 833e 839e 6cbe 61c7 f8bd
00000300: 57dd 103e e458 0d3d c712 953e ef3e b93d
00000310: bc1d 6a3e 0c34 37bb 3b6e 0f3e a24f 783e
00000320: 710c 733e 05f9 833e cb18 d8bc edfd 6d3e
00000330: 88ee 483e 91e1 e33d fe25 8d3e 7999 153d
00000340: 7813 7c3d 2e01 f63d 4c62 373e 29a7 a83e
00000350: 37bd a93d e059 f03d f602 153e 9fe0 f43b
00000360: c5c7 233e 661a 653e 3f10 933d 57b5 c83d
00000370: b9c3 373d dd35 643e aaef 123e 3583 223e
00000380: dc58 cb3e ae96 6a3c a3fd 203e 3b87 483e
00000390: b66e f73c eed9 e53d fa3f 873d 76e3 2d3e
000003a0: d1cf 2b3e 1df7 353d 0a6a 083e 59fd 2d3e
000003b0: 3e26 8c3d 1094 fa3d 9116 253e 7de6 f23d
000003c0: 2c92 8e3e 2f74 b73d df33 e43d 71e3 283e
000003d0: 86b2 843c f234 f63d 8f01 0b3d d7b8 363d
000003e0: af51 803b b988 563e 6410 b63d a8a4 4f3e
000003f0: 007c 133c d5da 153e d844 58bb 3efd 1f3e

lstm.bias_hh_l0_reverse f4 [256]
0.18379755 0.06506392 0.2915116 0.16205609 0.24937434 0.19561782 0.16087341 0.06323524
0.07626853 0.28892064 0.03586755 0.08313147 0.24963918 0.13405657 0.11495358 0.21486573
0.11880837 0.25296056 0.07926295 0.29939857 0.20453136 0.1307956 0.31988016 0.21065074
0.091380715 0.30837318 0.070889264 0.14377992 0.08379456 0.13462444 0.1676831 0.17917104
0.19534041 0.1555091 0.11873281 0.17518382 0.017831411 0.08909582 0.24222818 0.11397441
0.19128592 0.23901665 0.28104353 0.13970411 0.024648266 0.19926104 0.11541167 0.07943594
0.32333094 0.1886078 0.17868139 0.17247789 0.032986593 0.13804483 0.12802696 0.15162838
0.16728169 0.1880884 0.21525635 0.20890844 0.16462205 0.3095072 0.1279368 0.09283314
-0.025116043 -0.02744915 0.055985857 -0.01487839 0.11714535 -0.015458148 -0.0008693297 -0.015993783
0.010356911 0.13867415 0.05949431 -0.042458985 -0.04659266 0.10486975 0.008513797 0.019971773
0.067859955 0.029354054 0.03577656 -0.0624144 -0.15719892 0.027454367 0.043593816 0.10595369
0.016146977 -0.121132895 0.044018075 0.067006595 -0.068365596 -0.039760053 -0.030999012 -0.05908564
-0.038791157 -0.04513589 0.12946294 0.080303535 0.023947056 0.1112365 -0.0876309 0.07793641
-0.021656837 -0.053455517 0.0058341264 0.08434413 -0.034457516 0.03254052 0.093221664 -0.09436041
0.011459836 -0.11310441 -0.12029083 0.13505615 -0.08152472 0.06182967 0.03906093 -0.1470227
-0.10621339 -0.021725183 -0.042572487 0.0060744025 -0.0017274229 0.07687266 -0.038923267 0.06548457
-0.007697127 0.07611933 0.33202708 -0.19918327 0.28325248 0.20930013 -0.09036909 -0.19559826
-0.26314932 0.20546569 0.17210826 -0.017117657 0.29812258 -0.17071073 -0.24958916 0.24537572
-0.18552755 -0.21642229 0.23154029 -0.35319436 -0.028705789 0.11110352 -0.13407362 -0.050571743
-0.08607684 -0.35442486 -0.07811434 0.01578763 0.26803362 0.05068104 -0.25511593 0.1326121
0.41747308 -0.099930234 0.14912544 0.010279711 -0.12802827 -0.22697066 -0.14105092 -0.23268582
-0.10738039 0.18608278 0.39474896 -0.09232995 0.15719712 -0.12246582 -0.18245618 -0.085890725
-0.36851072 0.08776794 -0.016067268 -0.22439642 0.13833289 0.07748144 -0.09772242 0.044970524
0.08584099 -0.08866033 0.21778323 -0.0842087 0.01599414 0.10021324 -0.065626085 -0.26663503
0.1974231 0.118506566 0.18398163 0.19903654 0.06692145 0.19276051 -0.00545229 0.24958618
0.10707497 0.20973134 0.035699286 0.18912213 0.31234726 0.09982462 0.13223122 0.19838703
0.13058066 0.1579629 0.1170668 0.16312085 0.07406215 0.08984847 0.16103914 0.12535627
0.14504416 0.24565046 0.03158568 0.26323658 0.24740171 0.11645102 0.14814451 0.21776
0.2511061 0.06044834 0.032444604 0.046976943 0.15999517 0.20333523 0.14041668 0.045723587
0.15531118 0.18813173 0.12999648 0.008047044 0.23759966 0.16097972 0.08753839 0.22326864
0.3266311 0.036085784 0.107103325 0.13434614 0.16358903 0.15330411 -0.01570879 0.23306748
0.13379543 0.03969364 0.23169594 0.2139519 -0.008463545 0.06415352 0.03037572 0.23097709
00000000: 6d35 3c3e 3c40 853d 0241 953e 08f2 253e
00000010: fd5b 7f3e 0a50 483e 00bc 243e 7a81 813d
00000020: ad32 9c3d 68ed 933e dae9 123d d540 aa3d
00000030: 6aa1 7f3e 2046 093e c86c eb3d c305 5c3e
00000040: cd51 f33d 0c84 813e 9d54 a23d c54a 993e
00000050: ab70 513e 48ef 053e 55c7 a33e d4b4 573e
00000060: d025 bb3d 17e3 9d3e 642e 913d 0b3b 133e
00000070: 7b9c ab3d fdda 093e 1eb5 2b3e 9d78 373e
00000080: 5107 483e c73d 1f3e 302a f33d 6363 333e
00000090: 2e13 923c df77 b63d aa0a 783e 6a6b e93d
000000a0: 75e0 433e c8c0 743e f0e4 8f3e 980e 0f3e
000000b0: 29eb c93c 160b 4c3e f45c ec3d 4faf a23d
000000c0: a28b a53e 6722 413e 41f8 363e 0b9e 303e
000000d0: f31c 073d a05b 0d3e 8019 033e 7844 1b3e
000000e0: e44b 2b3e 3f9a 403e 296c 5c3e 18ec 553e
000000f0: af92 283e ba77 9e3e dd01 033e 4d1f be3d
00000100: 29c0 cdbc 0add e0bc 6d51 653d 7ec4 73bc
00000110: e7e9 ef3d 2c44 7dbc bbe3 63ba 6505 83bc
00000120: 09b0 293c 9900 0e3e 4eb0 733d 79e9 2dbd
00000130: f2d7 3ebd f4c5 d63d 747d 0b3c d89b a33c
00000140: 29fa 8a3d ea77 f03c 718a 123d 3ea6 7fbd
00000150: c1f8 20be fbe7 e03c 6e8f 323d 40fe d83d
00000160: aa46 843c 8614 f8bd 4c4c 343d c13a 893d
00000170: 4303 8cbd 70db 22bd a4f1 fdbc c903 72bd
00000180: 7ae3 1ebd 69e0 38bd ef91 043e 2e76 a43d
00000190: 9e2c c43c f6cf e33d d477 b3bd 209d 9f3d
000001a0: ae69 b1bc 2cf4 5abd 332c bf3b 9dbc ac3d
000001b0: 5323 0dbd 3549 053d 00eb be3d 0840 c1bd
000001c0: 09c2 3b3c 49a3 e7bd 0a5b f6bd 294c 0a3e
000001d0: 6ff6 a6bd 1c41 7d3d 5bfe 1f3d 1e8d 16be
000001e0: 6886 d9bd 03f9 b1bc 7d60 2ebd c80b c73b
000001f0: b26a e2ba 6a6f 9d3d 016e 1fbd c61c 863d
00000200: 2e38 fcbb 74e4 9b3d 74ff a93e b3f6 4bbe
00000210: 7806 913e c652 563e 6e13 b9bd e94a 48be
00000220: 82bb 86be 9965 523e 263d 303e 543a 8cbc
00000230: 86a3 983e cbce 2ebe 4d94 7fbe c643 7b3e
00000240: effa 3dbe ce9d 5dbe e618 6d3e e4d5 b4be
00000250: 6728 ebbc 3e8a e33d 984a 09be 5124 4fbd
00000260: 0e49 b0bd 2d77 b5be 69fa 9fbd 0f55 813c
00000270: b43b 893e ec96 4f3d 8e9e 82be 77cb 073e
00000280: 08bf d53e 39a8 ccbd 57b4 183e 3c6c 283c
00000290: d819 03be ff6a 68be a76f 10be 3145 6ebe
000002a0: 40ea dbbd 7c8c 3e3e 891c ca3e 7c17 bdbd
000002b0: 48f8 203e 5ccf fabd cbd5 3abe 7ae7 afbd
000002c0: 70ad bcbe adbf b33d 819f 83bc 2dc8 65be
000002d0: 23a7 0d3e 97ae 9e3d b122 c8bd 0333 383d
000002e0: 67cd af3d 8c93 b5bd 9102 5f3e 9c75 acbd
000002f0: 2506 833c 993c cd3d f866 86bd 6384 88be
00000300: 4829 4a3e 92b3 f23d ae65 3c3e 3cd0 4b3e
00000310: 1d0e 893d 0363 453e 20a9 b2bb 8593 7f3e
00000320: 1f4a db3d d0c3 563e 6a39 123d 3ba9 413e
00000330: fbeb 9f3e da70 cc3d 9f67 073e f825 4b3e
00000340: f0b6 053e 07c1 213e b8c0 ef3d 2709 273e
00000350: e6ad 973d 7a02 b83d 72e7 243e 655d 003e
00000360: 7586 143e cb8b 7b3e fc5f 013d f2c6 863e
00000370: e056 7d3e df7d ee3d 32b3 173e 7afc 5e3e
00000380: fb90 803e ae98 773d a2e4 043d e56a 403d
00000390: c6d5 233e 1c37 503e 64c9 0f3e a848 3b3d
000003a0: e509 1f3e 9ba5 403e cc1d 053e c0d7 033c
000003b0: 534d 733e ded7 243e 5447 b33d 89a0 643e
000003c0: 313c a73e b0ce 133d fd58 db3d 0992 093e
000003d0: e283 273e c1fb 1c3e b8af 80bc 3ea9 6e3e
000003e0: ab01 093e cc95 223d b341 6d3e 3516 5b3e
000003f0: aeaa 0abc ec62 833d 80d6 f83c 4285 6c3e
